training/model/sketch_images/weights/cnn.pth (torch, 798193 bytes, 20 tensors)

conv1.weight f4 [30, 1, 5, 5]
-0.0015134779 0.049043074 0.17736107 0.24700126 0.07757642 -0.044312477 -0.06597184 -0.19041659
-0.46248263 -0.2278593 0.027499506 0.021542897 0.05574727 0.27552214 0.24467725 -0.018945547
-0.010958701 0.035433207 -0.17030077 -0.16571414 0.005621117 -0.020812262 -0.056229 0.053472817
0.10212321 0.21469666 0.0031485897 -0.20311421 0.065867096 -0.07683106 0.15892108 0.23349726
0.1272195 -0.3372701 -0.18354522 -0.109299034 0.045908492 0.2659536 0.31295604 -0.013893564
-0.08008086 -0.07123647 -0.13553573 0.011182412 0.05909102 -0.02005982 -0.10418511 -0.0065919533
-0.015951682 -0.0300931 -0.13848889 0.22733395 -0.02477032 -0.10538077 -0.029898264 0.2736438
-0.57500994 -0.50785273 -0.27900872 -0.18516411 -0.5137612 -0.20637825 0.33693793 0.18853338
0.10364026 -0.40333512 0.43976283 -0.02202621 0.14293563 -0.032360613 -0.21895139 0.17014284
0.01565725 0.02474295 0.07809646 -0.0066633318 -0.32522684 -0.37987113 -0.1429876 -0.18403567
0.22502536 0.27711812 -0.090077676 -0.21061383 -0.047094245 0.011940927 0.076167926 0.23016807
-0.42342037 -0.058330357 0.15415056 -0.021326577 0.32462698 -0.3097979 -0.18810667 0.0790958
0.087355256 0.07564404 -0.4616457 -0.021878043 0.004068964 -0.03470913 -0.17825742 0.04372549
0.021407241 -0.11568132 0.016624607 -0.20046426 0.19822103 0.005132298 0.1196363 -0.23935717
0.036372177 0.2582389 -0.25874805 -0.018969001 -0.2605808 0.46071202 -0.03967384 -0.16851224
-0.15750328 0.30719697 0.05654544 -0.32365093 0.13076279 -0.11626166 0.030541029 0.2729314
-0.1974401 -0.118973374 0.15095492 -0.35166752 0.20770995 0.34529194 -0.19566052 -0.09446023
0.11301059 -0.5140409 0.30977452 0.13263388 -0.24682742 0.048789144 0.04625888 -0.12560126
0.1678882 -0.03665309 0.031721476 -0.057853144 0.019772574 0.07769794 -0.01862096 0.051621415
0.0952288 0.08476595 -0.058379676 0.09745509 0.1689175 -0.1773598 -0.25269192 0.215513
-0.031469904 0.12546548 -0.08711356 0.11005776 -0.077398695 -0.0510713 -0.609822 0.041528348
0.18559419 0.08091279 0.06768166 0.2502023 0.13593908 -0.20654544 -0.042530082 -0.15921694
-0.34753397 -0.14647213 -0.02975899 -0.04304454 -0.4992858 0.026575534 0.20814312 0.013472682
0.17676355 -0.48332447 0.12863104 0.13442326 0.02739332 0.015111313 -0.52700394 0.2510639
0.060464304 0.091933295 0.16172963 -0.2783338 -0.21568471 0.027359812 0.061513133 0.03208774
0.0057013007 -0.10285525 0.035243303 -0.0008432262 -0.014654537 -0.029961137 -0.043657575 -0.1754292
-0.011185163 0.23856226 -0.15989915 -0.1464103 0.18701376 0.40677834 0.11242826 -0.0028108484
0.23348723 0.24408531 -0.02473625 -0.16087386 0.14291537 0.043968894 -0.06868948 -0.110430405
-0.12309513 -0.068415575 0.0680724 0.08328337 -0.21682154 0.1469868 -0.08218147 -0.054206014
0.2607126 -0.026480336 -0.22593562 -0.009942205 -0.38160625 0.137491 0.3243855 -0.12426504
0.27515504 -0.15749566 -0.40847108 0.20860954 0.13596676 -0.036110654 0.20883125 -0.08827578
-0.21073094 -0.015297291 0.047182716 -0.035063192 0.30101538 0.047380794 0.055552877 0.018135559
00000000: e45f c6ba 64e1 483d 249e 353e e6ed 7c3e
00000010: 63e0 9e3d 0081 35bd 3e1c 87bd 91fc 42be
00000020: 86ca ecbe f353 69be a546 e13c bb7a b03c
00000030: 4057 643d 3d11 8d3e ac8c 7a3e b133 9bbc
00000040: 208c 33bc 6922 113d 5363 2ebe f8b0 29be
00000050: 5931 b83b 7a7e aabc 6150 66bd 5006 5b3d
00000060: f925 d13d 71d9 5b3e 9258 4e3b 2cfd 4fbe
00000070: 54e5 863d 9a59 9dbd 35bc 223e e819 6f3e
00000080: d445 023e abae acbe 47f3 3bbe 2cd8 dfbd
00000090: 8b0a 3c3d 122b 883e c63b a03e d5a1 63bc
000000a0: 6f01 a4bd 6de4 91bd e1c9 0abe 6f36 373c
000000b0: 6d09 723d 7e54 a4bc 015f d5bd 5001 d8bb
000000c0: 1aad 82bc ce85 f6bc 08d0 0dbe 3bca 683e
000000d0: 20eb cabc e0d1 d7bd 34ed f4bc 0a1b 8c3e
000000e0: da33 13bf a302 02bf 3bda 8ebe a99b 3dbe
000000f0: db85 03bf d254 53be 2183 ac3e e50e 413e
00000100: 5841 d43d f181 cebe 9828 e13e 4f70 b4bc
00000110: b85d 123e 908c 04bd cb34 60be ed39 2e3e
00000120: a243 803c bab1 ca3c 09f1 9f3d 1458 dabb
00000130: 2284 a6be 787e c2be 576b 12be d973 3cbe
00000140: 0c6d 663e 6de2 8d3e a57a b8bd 27ab 57be
00000150: e5e5 40bd e1a3 433c eefd 9b3d 2eb1 6b3e
00000160: 8eca d8be d0eb 6ebd a5d9 1d3e 13b5 aebc
00000170: 8235 a63e d59d 9ebe 099f 40be fbfc a13d
00000180: 50e7 b23d 43eb 9a3d d35c ecbe 9539 b3bc
00000190: f254 853b 292b 0ebd 1d89 36be 8019 333d
000001a0: 3d5e af3c 54ea ecbd 5430 883c 8146 4dbe
000001b0: 74fa 4a3e d62c a83b e003 f53d 0c1a 75be
000001c0: fefa 143d e437 843e a07a 84be e164 9bbc
000001d0: d96a 85be 72e2 eb3e 0981 22bd 798e 2cbe
000001e0: 8a48 21be ec48 9d3e 319c 673d 93b5 a5be
000001f0: aee6 053e 981a eebd 2e31 fa3c aabd 8b3e
00000200: bd2d 4abe 50a8 f3bd ed93 1a3e c40d b4be
00000210: ebb1 543e 1bca b03e 3b5b 48be 5d74 c1bd
00000220: 1972 e73d 2f98 03bf c49a 9e3e 2dd1 073e
00000230: 54c0 7cbe 20d7 473d f479 3d3d 9e9d 00be
00000240: e2ea 2b3e 8d21 16bd 61ee 013d 6bf7 6cbd
00000250: 18fa a13c 1920 9f3d fc8a 98bc fa70 533d
00000260: 5107 c33d c599 ad3d 871f 6fbd 8996 c73d
00000270: b6f8 2c3e cf9d 35be d660 81be 71af 5c3e
00000280: 96e6 00bd 067a 003e 9868 b2bd f665 e13d
00000290: 3583 9ebd 2430 51bd 4b1d 1cbf a119 2a3d
000002a0: 670c 3e3e 9bb5 a53d af9c 8a3d 841a 803e
000002b0: 9d33 0b3e a680 53be 0634 2ebd c409 23be
000002c0: f9ef b1be cafc 15be 20c9 f3bc 794f 30bd
000002d0: 63a2 ffbe efb4 d93c 7823 553e 86bc 5c3c
000002e0: 8101 353e 4e76 f7be dbb7 033e 40a6 093e
000002f0: f567 e03c 7195 773c bbe9 06bf 738b 803e
00000300: 6ba9 773d 8647 bc3d 749c 253e c581 8ebe
00000310: 74dc 5cbe af21 e03c 32f5 7b3d 6f6e 033d
00000320: fad1 ba3b c6a5 d2bd 485b 103d f40b 5dba
00000330: 9519 70bc 0f71 f5bc 49d2 32bd b6a3 33be
00000340: f941 37bc aa49 743e 9abc 23be 95ec 15be
00000350: 8980 3f3e 4045 d03e ca40 e63d 3636 38bb
00000360: 4717 6f3e 80f1 793e ada3 cabc 1ebc 24be
00000370: 6858 123e ba18 343d 12ad 8cbd 5629 e2bd
00000380: 4d19 fcbd 771d 8cbd 8b69 8b3d 7990 aa3d
00000390: 7706 5ebe b583 163e c24e a8bd 2007 5ebd
000003a0: 1f7c 853e 4aed d8bc ab5b 67be a1e4 22bc
000003b0: e561 c3be 71ca 0c3e db15 a63e ab7e febd
000003c0: 1fe1 8c3e 8b46 21be 1f23 d1be bd9d 553e
000003d0: df3a 0b3e c4e8 13bd dcd7 553e efc9 b4bd
000003e0: dac9 57be 7da1 7abc aa42 413d 6c9e 0fbd
000003f0: b01e 9a3e 5d12 423d 6a8b 633d 0691 943c

conv1.bias f4 [30]
-0.004173101 -0.27944392 0.014185972 -0.004288701 -0.009276803 -0.28429875 -0.1668308 0.0050627575
-0.45856568 0.027385512 -0.38685727 -0.6520946 0.011281664 0.0043932153 0.10571176 -0.12907898
-0.10353428 0.046732977 -0.0024891943 -0.068239704 -0.45515713 -0.0030445715 -0.56769216 -0.17465325
-0.26561168 -0.013359083 -0.32419562 0.05924719 -0.00618929 -0.19279547
00000000: 82be 88bb 4613 8fbe 476c 683c 3b88 8cbb
00000010: bbfd 17bc 9b8f 91be b1d5 2abe 7de5 a53b
00000020: 1fc9 eabe 9557 e03c 2812 c6be acef 26bf
00000030: bad6 383c f6f4 8f3b 687f d83d 482d 04be
00000040: c809 d4bd 146b 3f3d c021 23bb 42c1 8bbd
00000050: 5b0a e9be 6f87 47bb 4654 11bf 4dd8 32be
00000060: 41fe 87be 0ee0 5abc f8fc a5be 2ead 723d
00000070: 87cf cabb 2d6c 45be

conv2.weight f4 [60, 30, 5, 5]
-0.22669813 -0.34068167 -0.3911734 -0.2512564 -0.06942691 -0.02634076 -0.038595382 -0.07148891
-0.009467576 0.01641386 0.050200988 0.0901848 -0.040604588 -0.084088616 -0.12651871 0.0827806
-0.03590554 -0.17560786 -0.031238835 -0.016179908 0.19797897 -0.058252662 -0.107061215 -0.13820969
-0.10057173 -0.003213664 -0.21880218 -0.170979 -0.17234494 -0.031228747 0.16280434 0.14056
-0.07912814 -0.21345016 0.019647852 0.30000904 0.19649655 0.07344435 -0.14531001 -0.04901667
0.1757237 0.1642621 0.121430635 -0.05371882 -0.023294192 0.23671491 0.13383317 0.09268145
0.008113177 0.058741752 0.094102815 -0.21809591 -0.2058044 -0.011479283 0.13412414 -0.02083607
-0.18841545 -0.17915955 0.023262305 0.07981431 0.029674534 -0.05663588 -0.05618555 0.025411196
0.021822743 0.04981067 -0.2920096 -0.44598168 -0.051394664 0.031154288 -0.051162146 -0.3720403
-0.46676394 -0.07666078 -0.016226502 0.2157139 0.08669069 -0.13566071 -0.23543558 -0.30364192
0.13022876 0.13593559 -0.026926957 -0.14462666 -0.28098992 0.0069738133 0.19717589 0.112878986
0.0072599784 -0.03812488 0.19948328 0.3221559 0.18930838 0.11395749 0.052579153 0.027267754
0.2744964 0.18260594 0.03081309 0.19967744 0.096211664 0.0068499437 0.07574658 0.089995556
-0.16404508 0.008556652 0.035846695 0.009355114 -0.06836211 -0.23402089 0.27742785 0.033338886
-0.1481114 -0.1286312 -0.17860946 0.1906776 0.15655163 -0.10592762 -0.09817593 -0.15208353
-0.03059215 0.101734295 0.23200607 -0.07335085 -0.062005386 0.07013989 -0.028851626 -0.23684695
-0.043182954 0.023646407 -0.048024278 -0.10071313 -0.3576515 0.011283014 0.15180545 -0.013976002
-0.003774707 0.01564528 0.11743464 0.0020878478 -0.11408132 0.21315956 0.14818253 -0.28227636
-0.080111176 -0.18299998 0.0063259373 -0.041907296 -0.053863335 0.06654501 -0.08515178 -0.025454609
0.102680676 0.10719682 0.20567942 -0.032229517 0.031015959 0.21074614 0.20184585 0.058598112
0.032739542 0.07275169 -0.013837343 -0.12388025 0.028202621 0.16241486 0.019096931 -0.034047034
-0.19805622 -0.27256888 -0.13743767 -0.031088429 0.17765222 0.034549557 -0.018758578 0.12454227
0.07775047 -0.10407911 -0.06289528 -0.28477836 0.1503138 -0.0014663127 -0.15383595 -0.017564205
-0.22884764 0.008689224 -0.08284297 -0.21281444 0.034764633 -0.23468626 0.06297536 -0.18150888
-0.033195924 -0.018241439 -0.3297211 0.1289841 -0.20216265 0.099083476 -0.16553995 -0.453377
0.050216988 -0.061386745 -0.1078438 -0.08996539 0.030998332 0.19736166 0.05549991 0.121823385
0.036610898 0.16817164 0.036842637 0.065570265 0.05184096 0.08046549 0.09317442 0.21245979
0.17333081 0.21000479 0.06669884 -0.092054494 0.17623833 0.32070336 0.3756322 0.2430476
-0.127525 -0.02642878 -0.12686138 -0.015003131 0.00012972837 -0.1320626 0.014829891 0.035866696
0.02814851 0.1526353 0.01026548 0.06936042 0.13822083 0.1961512 0.076767825 -0.043862555
0.028729802 0.2071224 0.13717479 -0.044961274 -0.14782885 -0.19488733 -0.11133254 -0.05513188
-0.14275773 -0.06533245 -0.029875837 -0.08198013 -0.11878133 -0.10952434 -0.22194235 0.06824723
00000000: 8e23 68be d46d aebe e147 c8be aea4 80be
00000010: b22f 8ebd 94c8 d7bc 3116 1ebd c768 92bd
00000020: e41d 1bbc 5c76 863c 8d9f 4d3d cfb2 b83d
00000030: ff50 26bd a736 acbd 1f8e 01be e088 a93d
00000040: b011 13bd 8cd2 33be 96e8 ffbc ba8b 84bc
00000050: 00bb 4a3e 589a 6ebd e942 dbbd d786 0dbe
00000060: 8df8 cdbd 569c 52bb ae0d 60be 1e15 2fbe
00000070: 317b 30be 6ed3 ffbc 2eb6 263e f6ee 0f3e
00000080: ef0d a2bd ae92 5abe 88f4 a03c c99a 993e
00000090: 6436 493e fe69 963d 26cc 14be b4c5 48bd
000000a0: eaf0 333e 5334 283e a0b0 f83d 4408 5cbd
000000b0: 76d3 bebc 6565 723e 900b 093e c6cf bd3d
000000c0: 21ed 043c 319b 703d fab8 c03d 8954 5fbe
000000d0: 63be 52be 9a13 3cbc d757 093e 68b0 aabc
000000e0: fbef 40be 9a75 37be 9790 be3c af75 a33d
000000f0: 0218 f33c 06fb 67bd d222 66bd 242b d03c
00000100: 9cc5 b23c 4606 4c3d 4882 95be b657 e4be
00000110: 3683 52bd 4737 ff3c 668f 51bd 117c bebe
00000120: affb eebe 5400 9dbd 71ed 84bc 1be4 5c3e
00000130: e38a b13d a4ea 0abe 0616 71be f476 9bbe
00000140: b05a 053e b332 0b3e ec95 dcbc 0319 14be
00000150: e9dd 8fbe 9684 e43b 7ae8 493e 192d e73d
00000160: 1de5 ed3b d628 1cbd 5845 4c3e 9ef1 a43e
00000170: 0eda 413e 8b62 e93d 3d5d 573d a060 df3c
00000180: cb8a 8c3e 0dfd 3a3e bc6b fc3c 3e78 4c3e
00000190: 9f0a c53d 7e75 e03b 0621 9b3d 974f b83d
000001a0: 6ffb 27be 3331 0c3c fcd3 123d 3146 193c
000001b0: 6f01 8cbd 2ca3 6fbe 060b 8e3e 5b8e 083d
000001c0: 84aa 17be e6b7 03be 66e5 36be fd40 433e
000001d0: 124f 203e 94f0 d8bd 7610 c9bd c9bb 1bbe
000001e0: 639c fabc 125a d03d 0093 6d3e f838 96bd
000001f0: 5cf9 7dbd 81a5 8f3d 3f5a ecbc 0288 72be
00000200: 9ce0 30bd 1cb6 c13c 1bb5 44bd af42 cebd
00000210: 191e b7be 64dc 383c e372 1b3e 9afb 64bc
00000220: 1361 77bb 882a 803c 9381 f03d 46d4 083b
00000230: 78a3 e9bd 8046 5a3e 29bd 173e 8786 90be
00000240: 5411 a4bd 5964 3bbe cf49 cf3b fca6 2bbd
00000250: cd9f 5cbd c048 883d 0e64 aebd 2f86 d0bc
00000260: 3f4a d23d 028a db3d a09d 523e 1903 04bd
00000270: 2e15 fe3c d6cd 573e aeb0 4e3e 9304 703d
00000280: e619 063d d7fe 943d 06b6 62bc eeb4 fdbd
00000290: 2f09 e73c 1550 263e 2b71 9c3c e774 0bbd
000002a0: 40cf 4abe 268e 8bbe 76bc 0cbe 29ad febc
000002b0: 77ea 353e d683 0d3d 97ab 99bc 0510 ff3d
000002c0: a33b 9f3d 6e27 d5bd 3ecf 80bd 78ce 91be
000002d0: dceb 193e 4a31 c0ba 2c87 1dbe cfe2 8fbc
000002e0: 0957 6abe 3f5d 0e3c 93a9 a9bd 07ec 59be
000002f0: 5c65 0e3d 9851 70be 3af9 803d 77dd 39be
00000300: 73f8 07bd 126f 95bc 34d1 a8be 6814 043e
00000310: ba03 4fbe 47ec ca3d 4e83 29be 0821 e8be
00000320: 54b0 4d3d ab70 7bbd 36dd dcbd c63f b8bd
00000330: 37f0 fd3c 2d19 4a3e e053 633d 8a7e f93d
00000340: 4ff5 153d 3035 2c3e 4ee8 163d b449 863d
00000350: 3057 543d 17cb a43d 3bd2 be3d 0f8f 593e
00000360: a27d 313e 7f0b 573e 6799 883d 1187 bcbd
00000370: d277 343e 3b33 a43e dd52 c03e 78e1 783e
00000380: ea95 02be 2b81 d8bc f3e7 01be b1cf 75bc
00000390: b207 0839 6b3b 07be 12f9 723c f5e8 123d
000003a0: b497 e63c 6e4c 1c3e 8b30 283c d60c 8e3d
000003b0: c389 0d3e dcdb 483e 7338 9d3d 39a9 33bd
000003c0: c35a eb3c e517 543e 8c77 0c3e 5029 38bd
000003d0: 7260 17be 8b90 47be 5102 e4bd f7d1 61bd
000003e0: 152f 12be 05cd 85bd 2cbe f4bc 33e5 a7bd
000003f0: a043 f3bd 4c4e e0bd db44 63be 34c5 8b3d

conv2.bias f4 [60]
-0.20071782 -0.27561384 -0.060675092 0.19858956 -0.32023135 -0.0109281195 -0.35746568 0.27162766
0.05300602 0.105739795 0.01119909 -0.1298963 -0.28769603 -0.114233546 0.00091599807 0.12743092
-0.38636234 0.52309036 -0.11960029 0.13577728 0.024673888 0.12642123 0.070940405 -0.055400085
-0.123693354 -0.13663442 -0.078941 0.041855134 0.057414647 -0.019657742 -0.035735246 -0.07628069
0.056053184 -0.08972687 -0.21066897 -0.5789138 -0.26045716 0.52915776 -0.11110894 -0.011719233
-0.038436938 0.04691674 -0.34342083 -0.15303431 -0.08190761 -0.04631238 -0.0056800987 -0.08464878
-0.20302129 -0.0072739534 -0.03075561 0.079835564 0.11728501 -0.041296855 -0.39615744 -0.30546394
-0.09305175 -0.0504473 -0.018911326 -0.23095697
00000000: f988 4dbe 421d 8dbe 7286 78bd 105b 4b3e
00000010: 5df5 a3be db0b 33bc be05 b7be c812 8b3e
00000020: d71c 593d 1b8e d83d 637c 373c 8903 05be
00000030: e54c 93be 47f3 e9bd 971f 703a 407d 023e
00000040: 49d1 c5be 40e9 053f fff0 f4bd 3309 0b3e
00000050: e520 ca3c 9174 013e 3449 913d 33eb 62bd
00000060: f152 fdbd e5e9 0bbe d2ab a1bd 4a70 2b3d
00000070: 9f2b 6b3d 4609 a1bc 1f5f 12bd 0d39 9cbd
00000080: 0698 653d b9c2 b7bd 9bb9 57be b233 14bf
00000090: a45a 85be e276 073f 158d e3bd 0702 40bc
000000a0: 0d70 1dbd c42b 403d dbd4 afbe 07b5 1cbe
000000b0: 2dbf a7bd 0db2 3dbd 1f20 babb 575c adbd
000000c0: d0e4 4fbe 585a eebb 30f3 fbbc d480 a33d
000000d0: 2033 f03d e426 29bd 26d5 cabe c565 9cbe
000000e0: ea91 bebd d4a1 4ebd edeb 9abc fc7f 6cbe

inp_layer.weight f4 [100, 960]
0.02969481 -0.19145417 -0.11828088 -0.05221293 0.07368684 0.041071493 -0.08831888 -0.2359058
-0.20757571 0.11537527 -0.344608 -0.26636666 0.08020755 -0.08018487 -0.0056588803 0.032398228
0.32625332 0.022222597 0.1231145 0.28315252 0.26166612 -0.047545083 -0.010461055 0.11986532
0.2827318 0.258569 0.03502583 0.018299833 0.22669232 0.121399224 0.13510863 0.03743227
-0.021505594 -0.10834534 0.0235173 -0.04359302 0.09540961 0.024470758 -0.10157625 -0.18810003
0.031838212 0.1340667 -0.074521914 0.06351447 0.042198166 0.26390517 0.37866244 0.39651334
0.21569446 0.10359918 0.09256921 0.081798375 0.30332556 0.07110643 0.008437361 0.14877662
0.24101277 0.08102689 0.16519041 0.10695723 0.18849735 0.11852264 -0.0018103243 0.09404894
-0.19232024 -0.2251155 -0.10694918 0.00907375 0.019709647 -0.1331447 -0.18392071 0.11504003
0.2368278 0.015372811 -0.063548446 0.07073746 0.10079502 0.08898332 0.086587444 0.15453503
-0.022134079 0.023914797 -0.004147313 0.022783734 0.014760572 -0.027949998 -0.003913887 -0.008727393
0.012221991 0.021857122 0.03030514 -0.022275958 -0.026946189 0.0110081695 -0.025196388 -0.027486987
-0.11535536 -0.077180326 0.11282784 0.12943687 -0.16507165 -0.019355986 -0.023282176 0.08611309
-0.014196523 0.033387758 -0.09857012 -0.037889637 0.058655027 0.08472861 0.17988506 0.08794542
-0.02836262 -0.050686345 -0.070260234 -0.114682086 0.2167698 0.17222793 0.11017933 -0.17400649
0.24105497 -0.113286406 0.07500145 -0.03238474 0.20939061 -0.028503345 0.025965095 0.73967916
0.12530899 -0.021369556 0.11223047 0.1378584 -0.045438807 -0.018852057 -0.04355922 -0.047079805
0.04327915 -0.13016081 -0.029833475 -0.030085864 -0.122513756 -0.0834894 -0.01832697 0.08717074
0.0028732275 -0.09763921 0.030833803 -0.044429634 -0.092548765 0.05418402 -0.035638895 0.020270193
-0.16378847 0.10476829 -0.13552934 -0.078551605 -0.0068514687 0.097498894 0.1698403 0.024688572
0.1256826 0.106751725 0.067636535 0.086180866 -0.18220526 0.015165311 0.045971464 -0.051164046
-0.0042078113 0.037000503 -0.0532648 -0.106919035 0.14593488 -0.034867812 0.023548586 -0.13006172
-0.14247774 0.07709877 0.06804512 0.034531765 -0.04640387 -0.041827206 0.05922515 -0.11082483
0.049103852 -0.0279887 -0.056037266 -0.05712679 -0.06099339 -0.05521035 0.011278915 0.2052247
-0.14256187 -0.37081954 -0.09746651 -0.026139203 0.066737615 -0.030717446 -0.17718849 -0.035356857
0.043476198 0.014701221 0.053405195 0.05584349 0.1966448 0.062374797 0.12935522 0.076997034
0.14131403 0.07133517 0.032432355 0.02566953 0.21041536 0.29238394 0.3240526 0.4563145
0.093816474 0.16001232 0.38845077 0.18397397 0.04273886 -0.014427753 0.032243263 0.11574605
0.07414808 0.062149007 -0.022477355 -0.009901983 0.15762903 0.18186764 0.09445353 0.22488956
0.104520366 0.073930785 0.0667631 -0.0005571033 0.105283 0.093945354 0.19011603 0.13046686
0.061678603 -0.3063744 -0.42698297 -0.38139948 -0.0393195 -0.14915273 -0.21338357 -0.15616162
-0.042623073 -0.21496497 -0.086834 0.0026900491 0.1460631 -0.024503578 -0.015198425 0.06851935
00000000: 8842 f33c 900c 44be 3f3d f2bd 3add 55bd
00000010: 20e9 963d 953a 283d 87e0 b4bd 4a91 71be
00000020: ba8e 54be df49 ec3d 7670 b0be 3661 88be
00000030: db43 a43d f737 a4bd 216e b9bb 01b4 043d
00000040: ad0a a73e 2a0c b63c 7423 fc3d 5ef9 903e
00000050: 1af9 853e a2be 42bd d864 2bbc f37b f53d
00000060: 39c2 903e 2863 843e 3f77 0f3d 88e9 953c
00000070: 0822 683e 28a0 f83d eb59 0a3e 9452 193d
00000080: 802c b0bc 29e4 ddbd 5aa7 c03c 988e 32bd
00000090: 1d66 c33d e676 c83c 3507 d0bd 4b9d 40be
000000a0: c968 023d c848 093e f29e 98bd e013 823d
000000b0: fcd7 2c3d 941e 873e 0be0 c13e cc03 cb3e
000000c0: 02df 5c3e cf2b d43d ed94 bd3d e885 a73d
000000d0: 7d4d 9b3e 3fa0 913d db3c 0a3c e658 183e
000000e0: 0dcc 763e 6df1 a53d ad27 293e 640c db3d
000000f0: 7305 413e ffbb f23d 6748 edba bb9c c03d
00000100: 99ef 44be ad84 66be 2c08 dbbd 11aa 143c
00000110: 2076 a13c 1657 08be b655 3cbe 1b9a eb3d
00000120: fd82 723e 3ede 7b3c b025 82bd cdde 903d
00000130: 9f6d ce3d e33c b63d c254 b13d 6e3e 1e3e
00000140: 8752 b5bc f7e8 c33c 2fe6 87bb f4a4 ba3c
00000150: 54d6 713c 65f7 e4bc 1040 80bb 57fd 0ebc
00000160: bf3e 483c b50d b33c 7c42 f83c 127c b6bc
00000170: 41be dcbc 9c5b 343c a868 cebc 642c e1bc
00000180: 6e3f ecbd b810 9ebd 4812 e73d 198b 043e
00000190: 8b08 29be 7290 9ebc 43ba bebc 0f5c b03d
000001a0: 8998 68bc 9ac1 083d 22df c9bd 2a32 1bbd
000001b0: 4140 703d 3286 ad3d ca33 383e ba1c b43d
000001c0: ba58 e8bc 7c9c 4fbd 99e4 8fbd 71de eabd
000001d0: e7f8 5d3e 855c 303e b3a5 e13d c22e 32be
000001e0: 1dd7 763e b402 e8bd 5c9a 993d dca5 04bd
000001f0: 7e6a 563e d97f e9bc c0b4 d43c 9d5b 3d3f
00000200: 0051 003e 350f afbc 17d9 e53d c12a 0d3e
00000210: 0b1e 3abd a16f 9abc 276b 32bd c1d6 40bd
00000220: 7a45 313d e048 05be 5565 f4bc a176 f6bc
00000230: 7ee8 fabd 7efc aabd 7122 96bc 9386 b23d
00000240: c24c 3c3b 11f7 c7bd 2c97 fc3c d9fb 35bd
00000250: 358a bdbd 10f0 5d3d 17fa 11bd ad0d a63c
00000260: 2ab8 27be c290 d63d 34c8 0abe aadf a0bd
00000270: 4982 e0bb 80ad c73d 9eea 2d3e b03f ca3c
00000280: f1b2 003e a6a0 da3d 0685 8a3d 987f b03d
00000290: 0494 3abe ed77 783c 934c 3c3d 6491 51bd
000002a0: aee1 89bb d78d 173d 312c 5abd 5ef8 dabd
000002b0: f46f 153e 8dd1 0ebd f7e8 c03c e62e 05be
000002c0: afe5 11be f6e5 9d3d 3d5b 8b3d 2e71 0d3d
000002d0: fc11 3ebd 0153 2bbd 1296 723d 21f8 e2bd
000002e0: 1f21 493d 8f48 e5bc 5587 65bd c8fd 69bd
000002f0: 34d4 79bd 3f24 62bd 33cb 383c 6c26 523e
00000300: bdfb 11be 0fdc bdbe 869c c7bd e221 d6bc
00000310: bbad 883d 27a3 fbbc e670 35be 5ad2 10bd
00000320: 1914 323d 64dd 703c 68bf 5a3d 25bc 643d
00000330: 415d 493e b77c 7f3d b275 043e 9fb0 9d3d
00000340: a0b4 103e 2c18 923d cad7 043d e848 d23c
00000350: 2077 573e 59b3 953e 39ea a53e 0ea2 e93e
00000360: da22 c03d 45da 233e 05e3 c63e ac63 3c3e
00000370: f10e 2f3d 6262 6cbc 8311 043d 440c ed3d
00000380: f3da 973d f58f 7e3d 6e22 b8bc ed3b 22bc
00000390: 8169 213e 833b 3a3e da70 c13d 7349 663e
000003a0: c60e d63d 0669 973d 18bb 883d 920a 12ba
000003b0: 9d9e d73d 6c66 c03d c7ad 423e 1b99 053e
000003c0: b4a2 7c3d 1bdd 9cbe 839d dabe cb46 c3be
000003d0: 7c0d 21bd 7ebb 18be 3981 5abe d5e8 1fbe
000003e0: 8895 2ebd c71f 5cbe 06d6 b1bd 894b 303b
000003f0: 9191 153e babb c8bc d102 79bc df53 8c3d

inp_layer.bias f4 [100]
0.028294241 0.0011931552 -0.0149661265 0.034074157 -0.0077352673 -0.03316665 0.02246064 -0.013948689
-0.007937475 0.036071986 0.010170366 0.006326117 0.0005685168 0.019108413 -0.001504257 -0.021468176
0.024351195 0.029742735 -0.01896012 -0.00034573194 -0.0055936864 -0.027351176 0.004104359 0.020056156
-0.024881117 -0.019633649 0.010914176 0.03675501 -0.0044760806 0.020088743 -0.019416634 -0.009632445
0.03108756 -0.00708705 0.0068516443 0.03279788 0.034976877 0.011442339 0.032213807 0.011536552
0.0017399705 -0.0040412485 -0.050608218 -0.019745607 -0.015248557 0.003356695 0.03540625 0.015391324
-0.023689179 -0.042232092 -0.025781082 -0.009841041 -0.022260817 -0.029382478 0.00311805 0.02897174
0.0156592 -0.02964818 -0.007544865 -0.016822865 -0.029583454 -0.009230663 0.020840155 0.0023185026
0.005234544 0.007695954 0.026754536 0.013584949 0.017929634 0.0010605878 0.00886575 0.019222029
0.021093067 0.03743278 0.033960562 -0.00111111 0.023517817 -0.016483007 0.015629262 -0.013914374
-0.03179506 -0.00396956 -0.05040778 0.022635862 0.032266226 0.015779749 -0.027851902 0.0052447603
-0.028860787 -0.05335772 -0.02066948 -0.0025566667 0.020741045 -0.0032854301 -0.041737497 0.030597182
-0.03879388 -0.009014184 -0.030215226 0.021677861
00000000: 53c9 e73c a563 9c3a 7c34 75bc 5891 0b3d
00000010: 2078 fdbb c1d9 07bd 60ff b73c 0b89 64bc
00000020: 2f0c 02bc 38c0 133d 9ba1 263c 514b cf3b
00000030: 8408 153a 3f89 9c3c 7d2a c5ba 07de afbc
00000040: 287c c73c 09a7 f33c 4152 9bbc 5b43 b5b9
00000050: 3e4b b7bb 930f e0bc dc7d 863b cf4c a43c
00000060: 7cd3 cbbc bfd6 a0bc 5fd1 323c 6c8c 163d
00000070: 16ac 92bb 2691 a43c a20f 9fbc 67d1 1dbc
00000080: 57ab fe3c 7c3a e8bb c283 e03b 1257 063d
00000090: ea43 0f3d a678 3b3c a0f2 033d ce03 3d3c
000000a0: b90f e43a 736c 84bb 904a 4fbd 8ac1 a1bc
000000b0: 15d5 79bc fffb 5b3b 2506 113d e42b 7c3c
000000c0: cf0f c2bc 8ffb 2cbd d932 d3bc 513c 21bc
000000d0: 515c b6bc 86b3 f0bc 3358 4c3b 2456 ed3c
000000e0: b947 803c bde0 f2bc ea3a f7bb 1bd0 89bc
000000f0: 0059 f2bc 353c 17bc f9b8 aa3c 05f2 173b
00000100: 8a86 ab3b 572e fc3b 542c db3c 6893 5e3c
00000110: 2be1 923c 6c03 8b3a a741 113c 8477 9d3c
00000120: 5ecb ac3c 1d53 193d 3b1a 0b3d aaa2 91ba
00000130: 70a8 c03c 5f07 87bc f008 803c 1df9 63bc
00000140: 893b 02bd 1513 82bb 6378 4ebd d86e b93c
00000150: 9729 043d 8844 813c ac29 e4bc 3ddc ab3b
00000160: 756d ecbc a08d 5abd 0b53 a9bc c08d 27bb
00000170: 20e9 a93c 5f50 57bb f0f4 2abd f1a6 fa3c
00000180: 55e6 1ebd 3ab0 13bc ec85 f7bc c595 b13c

classifier.0.0.weight f4 [100, 100]
0.1458575 0.110213414 0.13654372 -0.05492198 -0.16338053 -0.18098436 -0.10516404 -0.13571279
0.07329533 -0.17721266 0.14615814 0.12321454 -0.24537766 -0.011417057 0.04687355 -0.3109771
0.07343075 0.2208288 -0.06924103 0.080456346 -0.1913594 0.17574348 0.030045044 0.0875993
0.120519094 -0.008262428 0.35797617 -0.073962405 0.061865047 -0.059572425 0.22402231 -0.21315534
-0.24827577 0.3005013 0.2770579 0.15860584 0.10809675 -0.07537358 -0.124273665 -0.23152408
-0.024575526 0.03912262 0.092719495 0.02236854 0.11102366 0.17036693 0.0736722 -0.07752862
-0.16711482 -0.16203701 0.13002244 -0.29253802 0.050568897 -0.14783439 -0.136086 0.23266637
0.12800848 -0.04799176 -0.0032565666 0.032627147 0.024382558 -0.067152 -0.016619006 -0.024810469
-0.031004047 0.018753903 -0.050356057 -0.029056665 0.1908546 -0.062241346 -0.107515745 0.3943442
0.06110262 -0.07634217 -0.1476831 0.27771342 0.08322384 0.008645799 -0.024209784 0.08157729
-0.08593893 0.18186744 0.0078090443 -0.060866944 0.061373085 0.27363434 -0.09475033 -0.042366017
-0.22610578 -0.04916146 0.24151094 0.016343141 -0.030206697 -0.22330424 -0.02989184 -0.018732548
0.09119241 -0.10154578 -0.05384704 -0.06683678 -0.28732952 0.298089 -0.020387435 -0.1323663
-0.12918073 -0.35895997 -0.048465937 0.06945546 0.10356384 -0.20376518 0.085007034 -0.15159021
-0.23243 0.14259356 -0.09596638 0.12934904 -0.07355416 0.114369094 0.11715699 -0.08164656
0.21985422 0.26745352 0.039146334 0.08567366 0.11761032 0.0213152 -0.1410313 0.22715956
-0.08553173 0.04986741 0.05482819 -0.19231598 0.16995735 -0.18881048 0.06417811 0.052313637
0.21869448 0.0061757625 -0.10598823 0.10714766 0.0770352 0.010937041 -0.097445235 -0.026488433
-0.07585824 0.058549058 -0.09854374 0.1835714 -0.021194523 -0.06581684 -0.013494466 -0.16520934
0.06508611 -0.39729232 0.021148918 0.17378883 0.23265928 -0.06895772 -0.14610137 -0.107807845
0.05725035 0.17776299 -0.25946802 -0.1494266 0.06408766 -0.22109678 -0.042379055 -0.016341327
-0.07047266 -0.047947988 -0.14476842 -0.062943116 -0.20464149 -0.10293438 0.093385525 -0.17989527
0.012005808 0.3610015 -0.11340145 0.086736746 0.33880773 0.20718579 0.08651581 -0.047281656
0.011283239 0.05691462 0.02337226 -0.03412819 -0.012995276 0.0515335 0.106628455 -0.17765258
0.032927327 0.064447545 0.100981735 -0.055684105 -0.04516273 0.13888563 0.08223119 -0.024161754
-0.084200874 0.022536142 0.07728314 -0.04335413 -0.29008207 -0.22079371 0.23510243 0.090187006
-0.14718379 0.107162945 0.027227614 0.09231139 0.007102648 -0.1321847 0.11331911 -0.005546181
0.22740227 0.087873586 0.041227784 -0.03928879 0.0554906 0.23343599 -0.12949042 0.0021418422
-0.077755354 0.016407033 -0.0954465 0.049831368 0.03230825 0.1731367 0.13314967 0.18282449
-0.013245091 0.026048342 -0.07295298 -0.1093192 -0.23826301 0.0034195962 -0.11747633 0.2630715
0.1269565 0.06646941 0.029830351 -0.13904509 0.082301825 -0.14288191 0.13288419 -0.13303512
0.23653062 0.2742999 0.005608077 0.08540209 -0.22542581 -0.10048329 0.109118566 0.09723478
00000000: ab5b 153e 92b7 e13d 1ed2 0b3e dff5 60bd
00000010: 3a4d 27be f753 39be 3f60 d7bd 4bf8 0abe
00000020: dd1b 963d 3c77 35be 7baa 153e e857 fc3d
00000030: 4844 7bbe 9c0e 3bbc 7bfe 3f3d 6438 9fbe
00000040: dc62 963d f220 623e 3ece 8dbd 4cc6 a43d
00000050: b8f3 43be 19f6 333e 0621 f63c 4367 b33d
00000060: b7d2 f63d 235f 07bc a748 b73e 9a79 97bd
00000070: 3466 7d3d 3702 74bd 1b66 653e 6545 5abe
00000080: 013c 7ebe 4edb 993e 88da 8d3e 9269 223e
00000090: d461 dd3d 775d 9abd 3183 febd a614 6dbe
000000a0: 9d52 c9bc 0a3f 203d b8e3 bd3d 3a3e b73c
000000b0: 5f60 e33d ab74 2e3e 73e1 963d 53c7 9ebd
000000c0: 2620 2bbe 08ed 25be 9a24 053e 8bc7 95be
000000d0: 5521 4f3d e661 17be 215a 0bbe 1840 6e3e
000000e0: a814 033e 0293 44bd 1f6c 55bb 0ba4 053d
000000f0: eebd c73c fd86 89bd 9524 88bc 533f cbbc
00000100: 33fc fdbc c9a1 993c 2742 4ebd 3e08 eebc
00000110: 636f 433e c8f0 7ebd 3731 dcbd 7ce7 c93e
00000120: be46 7a3d 4959 9cbd 3d3a 17be 7430 8e3e
00000130: 4371 aa3d 1ca7 0d3c 9953 c6bc ff11 a73d
00000140: c000 b0bd 753b 3a3e 03e3 ff3b 9e4f 79bd
00000150: 5862 7b3d cd19 8c3e 760c c2bd fd87 2dbd
00000160: 4688 67be 875d 49bd a54e 773e 0de2 853c
00000170: 0974 f7bc dea9 64be bbdf f4bc 0075 99bc
00000180: 16c3 ba3d 3cf7 cfbd b78e 5cbd b9e1 88bd
00000190: db1c 93be 1f9f 983e 8d03 a7bc 088b 07be
000001a0: f447 04be 9ac9 b7be 3884 46bd aa3e 8e3d
000001b0: 4719 d43d d2a7 50be 2b18 ae3d 773a 1bbe
000001c0: 2102 6ebe 0c04 123e 058a c4bd 1374 043e
000001d0: 90a3 96bd 583a ea3d 01f0 ef3d 5036 a7bd
000001e0: 7721 613e abef 883e e857 203d ac75 af3d
000001f0: aedd f03d 379d ae3c 826a 10be 849c 683e
00000200: 422b afbd c541 4c3d 8693 603d 7bee 44be
00000210: 4d09 2e3e 8957 41be d06f 833d d346 563d
00000220: 72f1 5f3e 0d5e ca3b 5b10 d9bd 3b70 db3d
00000230: a2c4 9d3d 4631 333c 5e91 c7bd 45fe d8bc
00000240: 915b 9bbd 23d1 6f3d 4dd1 c9bd 24fa 3b3e
00000250: 23a0 adbc fbca 86bd e517 5dbc a32c 29be
00000260: de4b 853d e669 cbbe 7f40 ad3c b3f5 313e
00000270: 3c3e 6e3e b539 8dbd 999b 15be 5cca dcbd
00000280: 587f 6a3d 8007 363e fed8 84be 4903 19be
00000290: 6440 833d 3267 62be a995 2dbd 3fde 85bc
000002a0: f853 90bd 1c65 44bd 2c3e 14be 52e8 80bd
000002b0: 8a8d 51be 43cf d2bd e940 bf3d 7736 38be
000002c0: 02b4 443c 30d5 b83e 053f e8bd 09a3 b13d
000002d0: 3578 ad3e 8328 543e 332f b13d 69aa 41bd
000002e0: 56dd 383c 4e1f 693d 2f77 bf3c 00ca 0bbd
000002f0: 23ea 54bc cb14 533d 0560 da3d 8fea 35be
00000300: cede 063d 13fd 833d 83cf ce3d 0415 64bd
00000310: 8efc 38bd 0938 0e3e d368 a83d dfee c5bc
00000320: 8271 acbd b79d b83c 9f46 9e3d 1a94 31bd
00000330: a385 94be bf17 62be b1be 703e f7b3 b83d
00000340: 59b7 16be 3f78 db3d 720c df3c c10d bd3d
00000350: 54bd e83b 6d5b 07be d913 e83d bdbc b5bb
00000360: 24dc 683e 11f7 b33d 77de 283d 48ed 20bd
00000370: 1d4a 633d d809 6f3e 2399 04be 265e 0c3b
00000380: 333e 9fbd 0b68 863c 7479 c3bd fa1b 4c3d
00000390: a855 043d bf4a 313e 6358 083e 5836 3b3e
000003a0: f001 59bc 5563 d53c 5f68 95bd bfe2 dfbd
000003b0: 38fb 73be 4e1b 603b 6e97 f0bd 4fb1 863e
000003c0: e200 023e 1d21 883d c85e f43c d661 0ebe
000003d0: dc8d a83d a34f 12be cb12 083e 5c3a 08be
000003e0: 1535 723e 0971 8c3e f6c3 b73b 4ae7 ae3d
000003f0: 06d6 66be 2fca cdbd 8e79 df3d 0723 c73d

classifier.0.0.bias f4 [100]
-0.0010195727 -0.052875035 -0.025584172 -0.0006176373 -0.07281918 -0.043955103 0.02843342 -0.06296516
0.023494098 -0.0022890903 -0.01373648 0.044987697 0.092892356 -0.028860731 0.024108185 0.015244958
-0.06527472 0.057360675 -0.06578858 -0.06946928 -0.042323463 -0.02973995 0.08037654 0.0074807205
0.073552944 0.017078796 0.023269981 -0.077044666 -0.08362103 -0.078046985 0.049780857 -0.025763512
-0.038455423 0.075493075 -0.03658689 -0.039690148 0.046363518 -0.006071748 -0.011291714 0.052969992
0.07601151 0.07743124 -0.101630256 -0.06810415 0.029470416 0.037741523 0.08323328 -0.06870526
-0.02621389 0.077729985 0.095826775 0.038478255 0.04343284 -0.06185593 -0.0044006063 0.029768033
0.055303227 0.026814356 -0.06210473 0.017013924 0.055105243 0.08711974 0.001097437 -0.08272665
-0.006108323 0.08355254 -0.054381363 -0.07291263 -0.068930395 -0.0013964481 -0.060203813 -0.04389216
0.044134762 -0.0721095 0.020544006 -0.023396837 -0.058245033 -0.06123587 0.0882863 -0.08686737
-0.03692198 -0.048493024 0.056718502 0.0574777 0.032745115 0.05876822 -0.09099549 0.019821003
-0.073919356 -0.04861601 0.093042135 -0.0122148115 0.04465852 0.0010282592 -0.10160693 0.037699673
-0.020264614 0.0024418922 0.095830835 0.08398757
00000000: 2fa3 85ba 7e93 58bd e695 d1bc f0e8 21ba
00000010: 3922 95bd 440a 34bd 34ed e83c e1f3 80bd
00000020: b276 c03c 9004 16bb f90e 61bc 0545 383d
00000030: 593e be3d 576d ecbc 877e c53c fdc5 793c
00000040: c1ae 85bd 07f3 6a3d 2abc 86bd e945 8ebd
00000050: 5e5b 2dbd 32a1 f3bc 759c a43d d520 f53b
00000060: eda2 963d d5e8 8b3c b0a0 be3c 98c9 9dbd
00000070: 8141 abbd 19d7 9fbd 03e7 4b3d 000e d3bc
00000080: 6f83 1dbd 1d9c 9a3d 23dc 15bd 2392 22bd
00000090: ace7 3d3d 84f5 c6bb e200 39bc 10f7 583d
000000a0: ecab 9b3d 4594 9e3d 8623 d0bd 307a 8bbd
000000b0: f16b f13c db96 1a3d 3676 aa3d 58b5 8cbd
000000c0: 83be d6bc e630 9f3d d440 c43d 609b 1d3d
000000d0: a2e6 313d a55c 7dbd f632 90bb 17dc f33c
000000e0: a385 623d c8a9 db3c 8861 7ebd c960 8b3c
000000f0: 09b6 613d d66b b23d e0d7 8f3a 976c a9bd
00000100: 5428 c8bb 981d ab3d febe 5ebd 3853 95bd
00000110: 612b 8dbd 0609 b7ba 4698 76bd 44c8 33bd
00000120: a7c6 343d 25ae 93bd e74b a83c b9aa bfbc
00000130: 5892 6ebd 77d2 7abd 73cf b43d 85e7 b1bd
00000140: 813b 17bd 9fa0 46bd a951 683d bd6d 6b3d
00000150: be1f 063d f2b6 703d d85b babd a85f a23c
00000160: 0863 97bd 9521 47bd e08c be3d a220 48bc
00000170: daeb 363d a7c6 863a 4b17 d0bd f96a 1a3d
00000180: fa01 a6bc 2708 203b f542 c43d ad01 ac3d

classifier.0.1.weight f4 [100]
0.9336699 1.0363667 1.0453424 1.073932 1.0461279 0.9139871 1.0504941 0.9719655
1.0512749 0.9480391 0.9581954 0.9770537 0.98258746 0.9891615 1.0533751 1.0536873
0.9944388 1.0671542 1.0016695 0.9215557 0.978602 1.0357223 0.93535906 1.0165882
1.0491127 0.97329944 1.1007361 1.0267531 1.1219318 0.96919376 0.99669224 0.98615336
0.9480765 1.0731125 0.97707075 0.98964006 0.9975537 0.96561265 0.9059758 0.9273923
0.9785208 0.9816342 0.97648066 0.9227704 0.91105276 0.9285102 0.98697954 0.99085
1.0066148 1.0148858 1.0838456 0.9110623 0.9606119 0.98699725 0.95937264 1.0576115
1.0075592 1.0243692 0.96654093 0.94216645 0.9387302 0.93608284 0.96652496 1.0316014
1.0334983 0.97834337 0.9782311 1.0106747 0.97859484 0.97029495 1.0101998 0.9418152
0.9438945 0.97835094 0.9669649 0.97889316 0.94671994 0.99430704 1.010434 1.000326
1.0064156 0.94782853 0.9364533 1.035802 0.96567196 0.9758349 1.0325345 1.0533162
1.0032673 1.0362142 1.0070428 0.9649826 0.896487 0.94456446 0.8891317 0.9789587
0.9952599 0.90925044 0.9355974 1.0504379
00000000: fe04 6f3f aaa7 843f c8cd 853f 9b76 893f
00000010: 85e7 853f 0ffb 693f 9776 863f bbd2 783f
00000020: 2d90 863f b1b2 723f 4b4c 753f 3120 7a3f
00000030: da8a 7b3f b039 7d3f ffd4 863f 3adf 863f
00000040: 8b93 7e3f 8298 883f b536 803f 13eb 6b3f
00000050: a985 7a3f 8c92 843f b173 6f3f 901f 823f
00000060: 5349 863f 272a 793f ece4 8c3f a56c 833f
00000070: 769b 8f3f 151d 783f 3927 7f3f 8c74 7c3f
00000080: 24b5 723f c05b 893f 4f21 7a3f 0d59 7d3f
00000090: ae5f 7f3f 6432 773f 08ee 673f 9569 6d3f
000000a0: 5780 7a3f 614c 7b3f a3fa 793f ae3a 6c3f
000000b0: c13a 693f d8b2 6d3f b1aa 7c3f 58a8 7d3f
000000c0: c1d8 803f c7e7 813f 74bb 8a3f 613b 693f
000000d0: a9ea 753f daab 7c3f 7299 753f d05f 873f
000000e0: b3f7 803f 881e 833f 3a6f 773f d231 713f
000000f0: 9f50 703f 20a3 6f3f 2e6e 773f 840b 843f
00000100: ac49 843f b674 7a3f 5a6d 7a3f ca5d 813f
00000110: 3185 7a3f 4065 783f 3a4e 813f cd1a 713f
00000120: 12a3 713f 3575 7a3f 038b 773f be98 7a3f
00000130: 3d5c 723f e88a 7e3f e755 813f af0a 803f
00000140: 3ad2 803f e4a4 723f 67bb 6f3f 2995 843f
00000150: 4736 773f 51d0 793f 172a 843f 11d3 863f
00000160: 106b 803f aba2 843f c7e6 803f 1a09 773f
00000170: 2c80 653f face 713f 239e 633f 0a9d 7a3f
00000180: 5ac9 7e3f a3c4 683f 5083 6f3f c074 863f

classifier.0.1.bias f4 [100]
-0.23358262 -0.3027661 -0.37192473 -0.40722707 -0.25999352 -0.1758535 -0.42133695 -0.37132668
-0.29456303 -0.12432623 -0.19329108 -0.2767978 -0.2749447 -0.23552372 -0.34170845 -0.4169457
-0.4392789 -0.40230733 -0.24877194 -0.036549576 -0.21117921 -0.31419617 -0.10840398 -0.19548067
-0.20887583 -0.20257251 -0.41560507 -0.251023 -0.39224926 -0.09110792 -0.3602789 -0.3532464
-0.09036553 -0.37806484 -0.20737886 -0.1724469 -0.27803063 -0.2785296 -0.13533558 -0.24149713
-0.1872426 -0.31419235 -0.1121944 -0.30339107 -0.09670185 -0.17437266 -0.23670197 -0.28226465
-0.20622432 -0.34089845 -0.28067386 -0.102508225 -0.22112687 -0.2615872 -0.20331061 -0.2974472
-0.23212 -0.30908075 -0.2486853 -0.19608045 -0.26259694 -0.18083419 -0.32221 -0.34911516
-0.3389947 -0.13431524 -0.2720713 -0.42340732 -0.18390921 -0.27703953 -0.22554097 -0.17705841
-0.28894407 -0.28192455 -0.24805279 -0.2545255 -0.12195524 -0.20802411 -0.3005554 -0.15164173
-0.3136095 -0.14731385 -0.003394315 -0.21606357 -0.13950263 -0.1308955 -0.2931722 -0.3154313
-0.37012753 -0.373083 -0.28508702 -0.19146633 -0.060258314 -0.1866573 -0.0670314 -0.20037715
-0.21963064 -0.017111132 -0.2350992 -0.3058589
00000000: 4830 6fbe 2904 9bbe eb6c bebe 1180 d0be
00000010: df1d 85be f112 34be 7ab9 d7be 881e bebe
00000020: f7d0 96be c09e febd 19ee 45be 71b8 8dbe
00000030: 8dc5 8cbe 212d 71be 69f4 aebe e879 d5be
00000040: 2ae9 e0be 3afb cdbe 12be 7ebe 02b5 15bd
00000050: 5d3f 58be 52de a0be e802 debd 162c 48be
00000060: 8ce3 55be 2b6f 4fbe 30ca d4be 1686 80be
00000070: e5d4 c8be ca96 babd 7a76 b8be b6dc b4be
00000080: 9011 b9bd b791 c1be 205b 54be ec95 30be
00000090: 085a 8ebe 6f9b 8ebe 6995 0abe 064b 77be
000000a0: 86bc 3fbe d2dd a0be 2dc6 e5bd 1356 9bbe
000000b0: 9f0b c6bd bf8e 32be 0062 72be fe84 90be
000000c0: 782c 53be 3e8a aebe 7cb4 8fbe d5ef d1bd
000000d0: 156f 62be c2ee 85be a830 50be 004b 98be
000000e0: deb0 6dbe d53f 9ebe 5ca7 7ebe 50c9 48be
000000f0: 1b73 86be 992c 39be b6f8 a4be 39bf b2be
00000100: b790 adbe ef89 09be ee4c 8bbe d8c8 d8be
00000110: b252 3cbe 20d8 8dbe 36f4 66be cd4e 35be
00000120: 7af0 93be 6a58 90be 8d01 7ebe 2b51 82be
00000130: abc3 f9bd 4604 55be 66e2 99be f847 1bbe
00000140: 6d91 a0be 71d9 16be 2873 5ebb c53f 5dbe
00000150: c7d9 0ebe 7809 06be ab1a 96be 3680 a1be
00000160: 5b81 bdbe bc04 bfbe edf6 91be c00f 44be
00000170: 6cd1 76bd 1723 3fbe c247 89bd ab2f 4dbe
00000180: dbe6 60be a52c 8cbc d8bd 70be 8a99 9cbe

classifier.0.1.running_mean f4 [100]
-1.9157602 -8.972939 -5.861292 -12.376971 -11.252632 -7.9128213 -7.2964244 -12.918812
-5.1521535 -6.6767864 8.959913 -4.8644266 -2.6968472 -8.566902 -4.199469 -6.819363
-11.013 8.192765 -20.161295 3.7317884 -1.6007723 -8.966497 -1.5583135 -0.9960447
11.555588 -16.602911 -13.164096 -9.385368 -12.957577 8.0253 3.578881 -10.427752
10.71376 -7.850153 3.650732 -1.9588364 13.328023 1.6233966 -8.014868 8.4114065
-8.850169 -3.1549902 -5.612615 10.756805 5.4113245 -2.2320402 3.9197667 0.98339087
-5.6404457 -12.884066 -19.288797 -16.298216 -9.816545 -7.3420873 -6.164031 -12.12869
-5.308258 0.3831935 -6.721231 -7.618018 -19.582314 6.050951 4.0313935 -10.214198
-19.725842 -17.243843 1.6990786 -0.89905185 -2.6028354 3.3081381 10.414811 15.242676
-18.491413 8.01664 -0.3643717 15.878522 -5.0896516 -6.7889695 6.1352 6.6119328
7.1419497 2.3983774 7.8404946 -21.079472 3.1224928 -1.1623393 -20.786404 3.0020921
-5.7865405 -4.426927 -12.569617 -4.817296 -0.21215156 -7.606438 8.087353 -11.736269
-6.545448 -20.9431 -6.7955885 -24.009352
00000000: a137 f5bf 2891 0fc1 b48f bbc0 1308 46c1
00000010: c80a 34c1 d535 fdc0 4f7c e9c0 74b3 4ec1
00000020: 71de a4c0 3ca8 d5c0 ce5b 0f41 62a9 9bc0
00000030: 2599 2cc0 0812 09c1 0d62 86c0 3938 dac0
00000040: 3f35 30c1 9115 0341 554a a1c1 9fd5 6e40
00000050: 1be6 ccbf c676 0fc1 d176 c7bf c9fc 7ebf
00000060: b0e3 3841 c3d2 84c1 23a0 52c1 782a 16c1
00000070: 3c52 4fc1 a167 0041 630c 6540 12d8 26c1
00000080: 906b 2b41 7434 fbc0 98a5 6940 27bb fabf
00000090: 953f 5541 76cb cf3f e63c 00c1 1f95 0641
000000a0: 4b9a 0dc1 5ceb 49c0 8b9a b3c0 e01b 2c41
000000b0: 9229 ad40 bfd9 0ec0 75dd 7a40 81bf 7b3f
000000c0: 887e b4c0 2225 4ec1 754f 9ac1 bf62 82c1
000000d0: 9110 1dc1 61f2 eac0 be3f c5c0 1d0f 42c1
000000e0: 40dd a9c0 f031 c43e 5314 d7c0 cec6 f3c0
000000f0: 94a8 9cc1 64a1 c140 2d01 8140 5b6d 23c1
00000100: 86ce 9dc1 64f3 89c1 687b d93f 4328 66bf
00000110: db94 26c0 89b8 5340 11a3 2641 00e2 7341
00000120: 6aee 93c1 2844 0041 ed8e babe 6d0e 7e41
00000130: 6dde a2c0 3d3f d9c0 8f53 c440 f494 d340
00000140: da8a e440 047f 1940 55e5 fa40 c2a2 a8c1
00000150: ecd6 4740 89c7 94bf 8e4a a6c1 4722 4040
00000160: 572b b9c0 63a9 8dc0 271d 49c1 4a27 9ac0
00000170: 423e 59be f167 f3c0 cc65 0141 c2c7 3bc1
00000180: 4f74 d1c0 788b a7c1 7675 d9c0 2713 c0c1

classifier.0.1.running_var f4 [100]
58.19093 81.685814 78.46616 75.59896 80.31246 60.211018 85.101616 73.14104
81.98745 68.63218 56.111706 59.42602 84.74123 54.358578 78.38303 56.69337
66.00188 72.35442 61.480423 55.993637 72.79208 63.00402 65.63323 71.72889
72.47505 69.88249 74.09713 77.40151 125.88633 69.17089 61.224228 72.46263
65.764275 61.321693 67.30525 71.521 73.91038 66.99162 57.638515 68.44578
60.274532 60.518497 51.33139 66.10563 61.215595 71.34283 86.11626 62.185936
78.089874 74.78571 96.53699 64.73265 62.057457 69.775696 66.29273 119.28718
62.31468 90.958824 64.09197 66.391396 66.06273 60.220905 69.59393 88.25039
68.55719 71.95627 65.34026 67.36332 68.28668 77.95845 56.493988 58.792404
80.55448 91.29233 68.41427 104.62617 56.20566 67.02223 79.71486 68.285904
47.431908 73.788864 69.00776 73.862404 68.17924 79.561554 76.39624 89.29013
56.504154 79.480675 61.85161 82.794 61.354126 55.456074 61.27054 59.93439
78.69684 86.199265 59.34192 77.65434
00000000: 83c3 6842 235f a342 adee 9c42 ab32 9742
00000010: fb9f a042 15d8 7042 0734 aa42 3648 9242
00000020: 93f9 a342 ad43 8942 6372 6042 3fb4 6d42
00000030: 827b a942 2f6f 5942 1dc4 9c42 03c6 6242
00000040: f600 8442 77b5 9042 f4eb 7542 7cf9 5f42
00000050: 8c95 9142 1e04 7c42 3744 8342 3175 8f42
00000060: 3af3 9042 d6c3 8b42 bb31 9442 93cd 9a42
00000070: cdc5 fb42 7f57 8a42 9ce5 7442 deec 9042
00000080: 4f87 8342 6a49 7542 4a9c 8642 c10a 8f42
00000090: 1dd2 9342 b6fb 8542 d78d 6642 3de4 8842
000000a0: 1f19 7142 f112 7242 5853 4d42 1536 8442
000000b0: c5dc 7442 87af 8e42 863b ac42 66be 7842
000000c0: 042e 9c42 4992 9542 f012 c142 1e77 8142
000000d0: d63a 7842 288d 8b42 e195 8442 0993 ee42
000000e0: 3b42 7942 ebea b542 172f 8042 65c8 8442
000000f0: 1e20 8442 35e2 7042 1830 8b42 3380 b042
00000100: 481d 8942 9ce9 8f42 37ae 8242 05ba 8642
00000110: c892 8842 baea 9b42 d8f9 6142 6c2b 6b42
00000120: e51b a142 ac95 b642 1bd4 8842 9940 d142
00000130: 99d2 6042 620b 8642 026e 9f42 6292 8842
00000140: 46ba 3d42 e693 9342 f903 8a42 8db9 9342
00000150: c55b 8842 841f 9f42 e0ca 9842 8c94 b242
00000160: 4104 6242 1bf6 9e42 0c68 7742 8796 a542
00000170: a06a 7542 05d3 5d42 0815 7542 d1bc 6f42
00000180: c864 9d42 0666 ac42 205e 6d42 064f 9b42

classifier.1.0.weight f4 [100, 100]
0.09238874 0.014583298 -0.08180485 0.41426975 -0.040467083 -0.07471392 -0.14798295 -0.12953737
0.16006923 -0.24469674 -0.20071842 -0.21311669 -0.01914226 -0.019936124 0.006445034 0.016950179
0.16981986 0.5314258 -0.062810734 0.1353928 -0.013785576 -0.3657063 0.21279292 -0.11449738
-0.07725077 -0.21091437 -0.19397922 0.2597521 0.012779 -0.2194276 0.025797881 -0.0970179
-0.0328543 -0.02363264 -0.12039608 -0.058126133 0.14225347 0.09955265 0.20319593 -0.16325952
0.013847077 0.24674484 -0.02622575 -0.14163649 0.22880559 0.05805079 0.10829482 0.028032375
0.0268403 -0.14682612 0.014906321 -0.0376986 -0.019359127 -0.05538095 0.024404105 0.0814913
0.12257916 0.039058413 -0.10891824 0.05258081 0.15530317 -0.053172424 0.074923076 0.13627264
0.08185792 -0.22496629 -0.07715973 -0.058282696 0.07395618 0.1445792 -0.0391722 -0.12807302
-0.033713408 0.03778137 0.038750146 0.13887684 -0.016539536 0.10765707 -0.12579875 -0.3477992
0.29997763 -0.11996403 0.011878451 -0.27298698 -0.021201344 -0.25304374 0.03094922 0.055220578
0.065061554 0.059292573 -0.03938899 -0.09766494 -0.14277071 -0.10810936 0.011287964 -0.2930981
-0.062464844 0.07081684 -0.015537912 -0.045921374 -0.18106948 -0.10886712 0.08370622 -0.19469081
-0.057249784 0.11472308 -0.22555408 0.13688722 0.029036228 -0.12065667 0.047910973 -0.03848404
-0.013351274 0.042753838 0.050616905 -0.14049682 0.064516135 0.0075009316 -0.05699258 -0.11083074
0.019941114 0.07761949 0.019779544 -0.010760985 0.15775287 0.022698365 -0.07585827 -0.08089969
-0.062255364 -0.060929704 -0.12578954 0.07679358 -0.03920352 -0.16816255 -0.132963 -0.025989506
-0.3440469 0.019206876 -0.17884415 -0.17635767 -0.007688648 0.13391308 -0.11725913 0.23871668
-0.10551993 -0.2939647 -0.1718875 0.015553878 -0.5458329 -0.2075599 -0.26835778 0.088786654
0.00013919549 0.153375 -0.41783702 -0.42492902 0.0118426625 0.27811703 0.13645604 -0.10055366
0.19528174 -0.064289704 -0.16007362 0.15677083 -0.06367983 -0.106746756 0.05074565 0.083592616
0.0075854408 0.03750686 0.23938741 0.042820048 -0.07452847 -0.23320079 -0.020798298 0.008140799
0.20408005 -0.044146467 -0.1386282 0.1579745 -0.20651042 -0.05183351 -0.09891462 0.06328935
-0.10834451 0.008237142 0.01317569 -0.15638554 -0.3194043 -0.055358056 -0.07293068 0.058896605
0.0064470368 0.13589951 0.07118412 0.22435723 0.29551777 -0.017140122 -0.07333571 0.10607706
-0.026628764 0.91649574 0.05211394 0.013885084 0.029536521 -0.041174043 -0.012729168 -0.033114757
-0.504507 0.14481634 0.0630987 0.028739076 -0.09544177 -0.058124203 -0.42229664 0.09765277
-0.06371204 -0.00050847954 0.07796148 0.14881271 -0.09988012 -0.08262952 -0.14970861 0.07169152
-0.09831271 0.05678155 0.0070402636 0.08523486 -0.013418738 0.10029087 -0.010403811 0.22602376
0.008443997 0.012635701 0.044516023 0.2773672 0.021636475 -0.09060725 -0.20277753 -0.045393903
0.11703713 0.013646952 -0.13609248 -0.047951315 0.14487526 0.086545065 0.011641049 -0.033391517
-0.030287703 -0.09235153 -0.030071553 -0.020249689 -0.08387145 -0.1858264 0.14902939 0.107922845
00000000: 4f36 bd3d c9ee 6e3c 4d89 a7bd 2a1b d43e
00000010: d0c0 25bd 9d03 99bd d888 17be 72a5 04be
00000020: 30e9 233e c891 7abe 2189 4dbe 433b 5abe
00000030: 3bd0 9cbc 1551 a3bc dd30 d33b 1adb 8a3c
00000040: 42e5 2d3e 850b 083f eaa2 80bd 69a4 0a3e
00000050: e6dc 61bc db3d bbbe 63e6 593e 9a7d eabd
00000060: a735 9ebd f0f9 57be 7da2 46be 3afe 843e
00000070: 035f 513c a1b1 60be 1456 d33c 52b1 c6bd
00000080: 3b92 06bd 3d99 c1bc 3892 f6bd ab15 6ebd
00000090: e5aa 113e 42e2 cb3d 9812 503e 812d 27be
000000a0: dade 623c aeaa 7c3e 62d7 d6bc 2809 11be
000000b0: 034c 6a3e aac6 6d3d adc9 dd3d 27a4 e53c
000000c0: 30e0 db3c 9659 16be a439 743c d969 1abd
000000d0: 0897 9ebc 23d7 62bd 1eeb c73c e9e4 a63d
000000e0: c80a fb3d b7fb 1f3d 8710 dfbd fa5e 573d
000000f0: cb07 1f3e 54cb 59bd 4571 993d 0e8b 0b3e
00000100: 20a5 a73d 905d 66be ec05 9ebd d6b9 6ebd
00000110: 5676 973d 920c 143e 0773 20bd 9325 03be
00000120: 1217 0abd a3c0 1a3d 79b8 1e3d bb35 0e3e
00000130: ec7d 87bc 4f7b dc3d 63d1 00be bd12 b2be
00000140: ab96 993e b4af f5bd d69d 423c f3c4 8bbe
00000150: 71ae adbc f38e 81be 3889 fd3c f92e 623d
00000160: fe3e 853d c5dc 723d 5956 21bd 8e04 c8bd
00000170: 7c32 12be 7168 ddbd 27f1 383c f410 96be
00000180: 23db 7fbd 6b08 913d ba92 7ebc 0d18 3cbd
00000190: 476a 39be baf5 debd 2b6e ab3d 075d 47be
000001a0: c07e 6abd eff3 ea3d a6f7 66be 2a2c 0c3e
000001b0: 62dd ed3c d81a f7bd 4c3e 443d 71a1 1dbd
000001c0: 4dbf 5abc a61e 2f3d ac53 4f3d 66de 0fbe
000001d0: 0921 843d 60ca f53b 0d71 69bd 3afb e2bd
000001e0: 8c5b a33c f8f6 9e3d b608 a23c d84e 30bc
000001f0: f889 213e ecf1 b93c 955b 9bbd bdae a5bd
00000200: 7bff 7ebd 6d91 79bd f9ce 00be f445 9d3d
00000210: df93 20bd ce32 2cbe 7427 08be f2e7 d4bc
00000220: ea26 b0be bd57 9d3c ec22 37be 1b97 34be
00000230: 0ef1 fbbb 8320 093e 8e25 f0bd 2572 743e
00000240: d51a d8bd 8b82 96be 4703 30be b1d5 7e3c
00000250: b4bb 0bbf 958a 54be 3166 89be c7d5 b53d
00000260: 01f5 1139 560e 1d3e bcee d5be 4c90 d9be
00000270: ba07 423c 5b65 8e3e 22bb 0b3e 14ef cdbd
00000280: f0f7 473e 52aa 83bd 57ea 23be 8888 203e
00000290: 926a 82bd 0b9e dabd acda 4f3d 9b32 ab3d
000002a0: 4a8f f83b cba0 193d f921 753e 1364 2f3d
000002b0: 62a2 98bd 30cc 6ebe 3161 aabc fc60 053c
000002c0: 5cfa 503e edd2 34bd 8df4 0dbe 11c4 213e
000002d0: 7877 53be 604f 54bd c093 cabd d99d 813d
000002e0: bae3 ddbd 14f5 063c d9de 573c 8823 20be
000002f0: f688 a3be 21bf 62bd ae5c 95bd 913d 713d
00000300: aa41 d33b 3e29 0b3e fbc8 913d e7bd 653e
00000310: 1b4e 973e 7169 8cbc 0831 96bd ee3e d93d
00000320: 9124 dabc 779f 6a3f 6d75 553d 437e 633c
00000330: 93f6 f13c 1da6 28bd 008e 50bc 57a3 07bd
00000340: 5f27 01bf bc4a 143e e439 813d 366e eb3c
00000350: fa76 c3bd a513 6ebd 4437 d8be 2dfe c73d
00000360: 757b 82bd 7c4b 05ba 45aa 9f3d 5c62 183e
00000370: f38d ccbd aa39 a9bd 374d 19be 01d3 923d
00000380: 2d58 c9bd c593 683d 03b2 e63b 9d8f ae3d
00000390: 44da 5bbc 4d65 cd3d bf74 2abc c672 673e
000003a0: b158 0a3c f905 4f3c 6f56 363d 1303 8e3e
000003b0: fa3e b13c 4b90 b9bd eaa4 4fbe f5ee 39bd
000003c0: 2ab1 ef3d 7797 5f3c d45b 0bbe 9968 44bd
000003d0: 2e5a 143e 8a3e b13d 19ba 3e3c 8bc5 08bd
000003e0: eb1d f8bc cd22 bdbd 9e58 f6bc ade2 a5bc
000003f0: cbc4 abbd 4749 3ebe 299b 183e a706 dd3d

classifier.1.0.bias f4 [100]
-0.02705394 0.0372799 -0.11232057 0.004883693 0.03800385 -0.074285746 -0.12604022 0.0818321
-0.07988802 0.04988696 0.11448585 0.022416065 0.05533082 0.07219152 -0.012721804 0.03017822
0.010804956 -0.08376054 -0.049510468 0.00015559106 -0.114354566 -0.01499233 0.09435418 0.0671775
0.0530709 -0.012076059 -0.10874628 -0.01543615 -0.1051788 0.05237081 0.029808236 0.0035293899
0.03688039 -0.04215908 -0.09761837 -0.012713853 -0.08925212 0.07949638 -0.056070734 -0.0386505
0.013683492 0.04237265 0.018496448 0.027489204 -0.10574459 0.019178683 0.0445714 0.034707826
0.002182224 0.0066515924 -0.06760768 -0.035979353 0.024086565 -0.1140799 -0.08129819 -0.014367787
-0.10950383 -0.02796014 -0.029636607 -0.08705138 -0.0766982 0.091759786 -0.02090871 0.07678925
-0.08450992 0.05521216 0.0028691972 0.05145869 0.054726288 -0.06667046 -0.062610395 -0.0101986425
0.08502323 -0.0064310404 0.016872445 -0.06764655 -0.11762151 0.081782624 0.02674629 0.06441683
-0.021277683 -0.061583925 -0.019084675 -0.06948482 0.08020966 -0.0728811 -0.033717714 -0.11617421
-0.068019375 -0.023167623 -0.046899498 0.04647732 -0.053064063 -0.025193999 -0.07766608 0.022181153
0.03147078 0.0080317035 0.0002860191 0.011662117
00000000: 39a0 ddbc cfb2 183d 5408 e6bd 6307 a03b
00000010: eda9 1b3d 2023 98bd b010 01be 9797 a73d
00000020: 559c a3bd 4556 4c3d 8f77 ea3d e5a1 b73c
00000030: 92a2 623d 26d9 933d 1d6f 50bc 5038 f73c
00000040: 4507 313c a58a abbd 7dcb 4abd 2826 2339
00000050: ba32 eabd 64a2 75bc c43c c13d 5b94 893d
00000060: df60 593d aada 45bc 5fb6 debd e8e7 7cbc
00000070: fc67 d7bd c682 563d 6730 f43c 564d 673b
00000080: e40f 173d 00af 2cbd 24ec c7bd c44d 50bc
00000090: d1c9 b6bd 00cf a23d 6daa 65bd fd4f 1ebd
000000a0: ba30 603c f28e 2d3d dd85 973c 0a31 e13c
000000b0: 9f90 d8bd 9d1c 9d3c 8090 363d cb29 0e3d
000000c0: a503 0f3b 9af5 d93b e575 8abd 165f 13bd
000000d0: 3051 c53c b9a2 e9bd aa7f a6bd de66 6bbc
000000e0: 8b43 e0bd aa0c e5bc 78c8 f2bc fe47 b2bd
000000f0: f213 9dbd 8eec bb3d be48 abbc af43 9d3d
00000100: 8913 adbd 2526 623d 2409 3c3b 59c6 523d
00000110: ac28 603d 868a 88bd e139 80bd 3518 27bc
00000120: a920 ae3d 7abb d2bb 1538 8a3c 468a 8abd
00000130: 8ce3 f0bd a67d a73d 091b db3c f9ec 833d
00000140: 894e aebc 6d3f 7cbd 7757 9cbc 0f4e 8ebd
00000150: f644 a43d b042 95bd 961b 0abd bfec edbd
00000160: be4d 8bbd 07ca bdbc b019 40bd 015f 3e3d
00000170: b459 59bd a563 cebc 650f 9fbd 40b5 b53c
00000180: 81e7 003d 6897 033c d5f4 9539 7712 3f3c
