src/gradio_demo/model/mnist/mnist_model.pth (torch, 663249 bytes, 20 tensors)

conv1.weight f4 [30, 1, 5, 5]
0	0x3db4f608	0.08835989
1	0x3c924741	0.017856242
2	0xbe1e4775	-0.15456946
3	0xbd2056cb	-0.039145272
4	0x3e11eb7d	0.14249988
5	0xbdfc4f3b	-0.123197995
6	0xbe7d9899	-0.24765243
7	0x3d667560	0.05626428
8	0x3d00da14	0.031457976
9	0x3dcbeb1c	0.09956953
10	0x3d30ba7e	0.043146603
11	0x3d6dae60	0.058027625
12	0x3e50842f	0.20362924
13	0x3df7e78b	0.1210471
14	0xbdb9f392	-0.090796605
15	0x3dcf8a51	0.10133804
16	0x3e3ac35b	0.18238585
17	0xbe0a4ba0	-0.13505411
18	0xbd84a74f	-0.06477224
19	0xbdc1e0a8	-0.09466678
20	0xbdee6267	-0.116398625
21	0xbd6b710e	-0.057480864
22	0xbdbafeca	-0.091306284
23	0xbe3acd5c	-0.18242401
24	0xbc8145d4	-0.015780367
25	0x3e4b65bd	0.19863029
26	0x3e1756a7	0.14779149
27	0xbcd43af9	-0.025907027
28	0xbe847aea	-0.25875026
29	0xbe084a2f	-0.13309549
30	0x3dbf8288	0.09351069
31	0xbd7437ac	-0.059623405
32	0xbccf198f	-0.025280742
33	0xbe590a57	-0.2119535
34	0xbda7381d	-0.08165
35	0xbdb0512a	-0.08609231
36	0xbe5aa945	-0.21353634
37	0xbd7d396a	-0.061822332
38	0xbe761f92	-0.2403548
39	0xbdd4ffab	-0.10400327
40	0xbdf3527c	-0.11880967
41	0xbe84c485	-0.25931183
42	0x3cb68446	0.02227987
43	0x3d8820e8	0.06646901
44	0xbd825e67	-0.06365662
45	0x3de39190	0.11111748
46	0xbc9c5d1a	-0.019087363
47	0xbe3de405	-0.18544014
48	0xbe35cef3	-0.17754726
49	0x3d8157f4	0.06315604
50	0xbde2feae	-0.110837325
51	0x3e1b6d58	0.1517843
52	0x3e44efee	0.19232151
53	0x3dc97429	0.09836609
54	0x3cd06a86	0.02544142
55	0xbe3633ea	-0.17793241
56	0xbe811b70	-0.25216246
57	0xbd8bd10e	-0.068269834
58	0xbcad42cd	-0.021150017
59	0x3e0be441	0.1366129
60	0xbe375af6	-0.17905793
61	0xbec0f5a7	-0.37687418
62	0xbe3bf893	-0.18356542
63	0xbd41353c	-0.04716991
64	0x3c78600f	0.015159621
65	0x3e5ec4ef	0.21754812
66	0x3c26e919	0.010187411
67	0xbea37474	-0.31924784
68	0xbedfce35	-0.4371201
69	0xbdfea2b1	-0.12433375
70	0x3d251bf5	0.040309865
71	0x3e86e4ee	0.26346534
72	0x3cb92f4a	0.022605557
73	0xbbd47601	-0.0064837937
74	0xbe208785	-0.15676697
75	0xbe862602	-0.26200873
76	0x3c8d768c	0.017268442
77	0x3e4df330	0.201123
78	0xbd97405d	-0.07385323
79	0xbc8a0266	-0.016846847
80	0xbe63bf0c	-0.22240847
81	0xbe02ce03	-0.127739
82	0xbe0d4ac2	-0.13798049
83	0x3e0d80ef	0.13818716
84	0x3dc11c87	0.09429269
85	0x3e1bb95d	0.15207429
86	0x3dcef700	0.10105705
87	0xbe2b9a30	-0.16758037
88	0x3e576a60	0.21036673
89	0x3dcdb9a0	0.10045171
90	0xbe6c2e22	-0.23064473
91	0xbdb5a5e4	-0.08869532
92	0xbe8278b2	-0.25482708
93	0xbe0ff00e	-0.14056417
94	0x3d373db4	0.04473658
95	0x3d41732e	0.047228985
96	0x3db4dc4f	0.08831083
97	0xbe0cbf2e	-0.13744804
98	0xbc06eac6	-0.008234685
99	0x3cdf0ed3	0.027228748
100	0x3e1ac3bd	0.1511373
101	0x3de788c2	0.11305381
102	0xbd300d43	-0.042981397
103	0x3e3809cc	0.17972487
104	0x3ce105a1	0.027468504
105	0x3ddb0dc9	0.10695989
106	0x3e07c659	0.13259257
107	0xbdec8973	-0.11549654
108	0xbd93a299	-0.072087474
109	0x3cefd8ed	0.029278243
110	0xbe65cd06	-0.22441491
111	0x3dd2117b	0.102572404
112	0x3e2c32d9	0.16816272
113	0x3e184521	0.1487012
114	0x3d4196bf	0.047262903
115	0xbe324aa7	-0.1741129
116	0xbe533c9e	-0.20628592
117	0xbd50f076	-0.05101057
118	0xbd8bf3bf	-0.068336
119	0xbe3698df	-0.17831753
120	0xbe14351e	-0.14473388
121	0xbe0132a4	-0.12616974
122	0xbe39f471	-0.18159653
123	0xbe4bd3f4	-0.19905072
124	0x3b90959d	0.0044123665
125	0xbe0b746a	-0.13618627
126	0x3e560db4	0.20903665
127	0x3e5b0306	0.21387872
128	0x3e097d4f	0.13426708
129	0x3e7b08eb	0.2451512
130	0x3d04e835	0.032448012
131	0xbd4c1c7e	-0.04983186
132	0x3df665c3	0.12031128
133	0xbd0f5c9f	-0.03500044
134	0xbe1fdb7a	-0.15611067
135	0xbe27fefb	-0.16405861
136	0xbe9037d3	-0.2816759
137	0xbeb3ef2c	-0.3514341
138	0xbead2cdd	-0.3382329
139	0xbe642c5e	-0.2228255
140	0xbe33316f	-0.17499326
141	0xbd1758a7	-0.03694978
142	0x3d65880c	0.056037948
143	0x3c522624	0.012826476
144	0xbca9ad3c	-0.020712487
145	0x3bd30646	0.006439957
146	0x3e7b6dd4	0.24553615
147	0xbd912cf3	-0.070886515
148	0xbb812608	-0.0039413013
149	0x3e681fcc	0.2266838
150	0xbd9c7825	-0.07640103
151	0x3d409200	0.047014236
152	0xbcd3ff38	-0.025878534
153	0xbd5adf56	-0.053435646
154	0xbe15453d	-0.14577194
155	0xbe67f1a1	-0.22650768
156	0xbd9f06ba	-0.07764955
157	0xbc8a547b	-0.016885987
158	0xbe0fd56a	-0.14046255
159	0x3d1df51e	0.03856384
160	0x3e82c5f6	0.25541657
161	0xbd26fec0	-0.040770292
162	0x3e65f8c1	0.22458173
163	0xbc91f10e	-0.01781514
164	0x3d96945f	0.07352518
165	0x3d1bf269	0.038072977
166	0xbe09e4f7	-0.1346625
167	0x3d2be065	0.041962046
168	0x3ca07125	0.019585202
169	0xbe9e1f72	-0.30883366
170	0x3c89369e	0.016749676
171	0xbe9a9778	-0.30193686
172	0x3e40338b	0.18769662
173	0x3c807535	0.015680889
174	0xbd6e1d71	-0.058133546
175	0x3d0c7f8c	0.034301326
176	0x3e045018	0.12921178
177	0xbd2863f1	-0.041110937
178	0x3b7d94af	0.0038693359
179	0x3e6a902c	0.2290656
180	0x3cb85fef	0.022506682
181	0xbdae2fea	-0.08505233
182	0xbdfab780	-0.12242031
183	0xbe62407f	-0.22094916
184	0xbd9cc994	-0.076556355
185	0xbc687e5c	-0.014190283
186	0xbda0393d	-0.07823417
187	0x3dce1993	0.10063472
188	0xbe84b51a	-0.2591942
189	0xbe1586db	-0.14602225
190	0x3da9415d	0.0826442
191	0x3e4cbb7a	0.19993392
192	0x3e372c05	0.17887886
193	0x3c19106d	0.009342295
194	0x3e091e92	0.13390568
195	0xbe3ca176	-0.18420967
196	0xbe44734c	-0.19184607
197	0x3e200896	0.15628275
198	0x3d49a578	0.04923007
199	0xbd191dc0	-0.037381887
200	0x3df6b981	0.12047101
201	0x3c58d1c2	0.013233604
202	0x3d1b6e06	0.037946723
203	0xbe3eef5c	-0.18645996
204	0x3cffc678	0.031222567
205	0xbd8352d2	-0.06412281
206	0xbc2b3159	-0.010448777
207	0x3e3076bb	0.17232792
208	0x3dc55596	0.09635465
209	0xbe8550f1	-0.26038316
210	0x3e28b120	0.16473818
211	0x3d72e8e6	0.05930414
212	0x3d6960f3	0.056977224
213	0xbddf45a7	-0.10901957
214	0xbd088257	-0.033327427
215	0xbe318f82	-0.173399
216	0xbdfa24d5	-0.122140564
217	0x3cb64e9d	0.022254283
218	0x3e1d9227	0.15387784
219	0xbda398bf	-0.079881184
220	0xbe6b8428	-0.22999632
221	0xbd72f0af	-0.059311565
222	0x3e08babc	0.13352484
223	0x3dee7fd2	0.116454735
224	0x3e379474	0.17927724
225	0x3daf00ad	0.08545051
226	0x3c471010	0.012149826
227	0x3e0cf889	0.13766684
228	0xbe2076b4	-0.15670282
229	0x3d9ed87f	0.07756137
230	0xbc4cd1fc	-0.012501236
231	0xbd1793ef	-0.037006315
232	0x3d96d240	0.07364321
233	0xbdedc64b	-0.11610087
234	0xbd5bd382	-0.053668506
235	0x3e047fb9	0.12939347
236	0x3d38c8c6	0.045113347
237	0x3bc10f5a	0.0058917226
238	0xbe748fd3	-0.2388299
239	0xbd8a9770	-0.06767166
240	0x3dd20fad	0.10256896
241	0x3e0cedab	0.13762538
242	0xbdcb48b5	-0.09925977
243	0xbe48ee92	-0.19622257
244	0x3dcc90c5	0.0998855
245	0xbe0b5886	-0.13607988
246	0x3d76f078	0.060287923
247	0x3b8cccc7	0.0042968723
248	0xbe5e7b81	-0.217268
249	0x3dd5e69c	0.10444376
250	0x3d709eee	0.058745317
251	0x3de023e1	0.10944343
252	0x3d62784d	0.05529051
253	0x3c8cb0d1	0.017174156
254	0xbd436e1e	-0.047712438
255	0xbe4b1431	-0.19831921

conv1.bias f4 [30]
0	0xbd244e2f	-0.040113624
1	0x3c890f76	0.016731005
2	0x3db47e4d	0.088131525
3	0xbd25e0af	-0.040497478
4	0x3b99ad00	0.0046898127
5	0xbe106f68	-0.14104998
6	0xbc41b4df	-0.011822908
7	0xbd97bf34	-0.07409516
8	0xbdf0aaeb	-0.1175135
9	0xbd428039	-0.047485564
10	0xbe39b941	-0.18137075
11	0x3d9cdb6f	0.07659041
12	0xbc03e010	-0.008049026
13	0xbd07501c	-0.033035383
14	0xbaf0e6db	-0.0018379347
15	0xbd10d8f6	-0.03536316
16	0xbcb40471	-0.021974774
17	0xbdbe37cb	-0.092879854
18	0xbd0c6095	-0.034271795
19	0xbd9f4618	-0.07777041
20	0x3cbf2a8c	0.023335718
21	0x3c28483f	0.010271131
22	0xbdf472fa	-0.119359925
23	0xbce2cb57	-0.02768485
24	0xbe1ffba6	-0.1562334
25	0xbd9dc0e1	-0.07702804
26	0xbd9a8bfc	-0.07546231
27	0xbe7f28cd	-0.24917908
28	0xbe2e7436	-0.17036518
29	0xbc892cf1	-0.016745063

conv2.weight f4 [60, 30, 5, 5]
0	0xbde6278f	-0.11238014
1	0xbd59886c	-0.053108618
2	0xbd45b6bb	-0.04826997
3	0xbd33a91a	-0.04386244
4	0xbcd046c4	-0.025424369
5	0xbc17e0d2	-0.00926991
6	0xbcd8a0a5	-0.026443789
7	0xbd886f54	-0.06661859
8	0xbd6f0d07	-0.058362033
9	0xb7557700	-1.2723496e-05
10	0xbc2881e3	-0.010284874
11	0xbd21f1fd	-0.03953742
12	0xbd2a3d56	-0.0415624
13	0xbe0bdd10	-0.13658547
14	0xbcc5ae42	-0.024130944
15	0xbd375bd6	-0.044765316
16	0xbda69e0f	-0.08135616
17	0xbbfb7ecc	-0.0076750275
18	0xbd77207e	-0.06033372
19	0xbd0b9787	-0.034080055
20	0x3bc37d83	0.00596589
21	0xbc3cfd01	-0.01153493
22	0x3dbe83a6	0.09302454
23	0xbcb237cd	-0.021755124
24	0xbb7f58ca	-0.0038962835
25	0xbd1e5f34	-0.03866501
26	0x3d86fe7b	0.06591507
27	0xbd287cb9	-0.04113457
28	0xbd681012	-0.05665595
29	0x3d024b16	0.03180989
30	0xbc33b8bd	-0.010969338
31	0xbd19fd9f	-0.037595388
32	0xbd2c5a2e	-0.04207819
33	0xbd7c9d22	-0.06167329
34	0xbd4d5c70	-0.050136983
35	0x3c0b971f	0.008519917
36	0x3cc16149	0.02360596
37	0x3b6fbac4	0.0036579827
38	0xbd49fc1a	-0.04931269
39	0x3c28aa2a	0.0102944765
40	0x3d1efbd9	0.0388144
41	0x3d99a78b	0.075026594
42	0x3bd051ae	0.006357393
43	0x3c88fbea	0.016721684
44	0x3ca17528	0.019709185
45	0xbdcbdb06	-0.09953885
46	0xbd240930	-0.040047824
47	0xbc1a758a	-0.009427438
48	0xbd3cc3cb	-0.04608516
49	0xbd2e9755	-0.04262479
50	0x3cdcf3f5	0.026971797
51	0x3d21c852	0.03949768
52	0x3d85128c	0.06497678
53	0x3dab7b9e	0.083731875
54	0x3d8f92e4	0.07010439
55	0x3d831fda	0.064025596
56	0x3d4b74d9	0.04967198
57	0x3d008a1b	0.031381708
58	0xbc157c07	-0.009123809
59	0x3d96a1e8	0.073551
60	0xbd950c4b	-0.07277735
61	0x3c57ab72	0.013163434
62	0xbc948b7a	-0.018132914
63	0x39900eae	0.00027476758
64	0x3d69dcbb	0.05709527
65	0xbcb60e4f	-0.02222362
66	0x3d9190ea	0.07107718
67	0x3d4ff314	0.050768927
68	0xbd892adb	-0.06697627
69	0xbdd3df99	-0.10345382
70	0xbced185d	-0.028942281
71	0x3cc93ab0	0.024564117
72	0x3bef91b9	0.0073110727
73	0xbc7c5dff	-0.01540327
74	0xbdaacfda	-0.08340426
75	0x3d23a169	0.039948855
76	0xbd826980	-0.06367779
77	0xbd09d23d	-0.033647764
78	0x3d4a4727	0.049384262
79	0xbc8296ba	-0.015941013
80	0x3ca3c6fb	0.019992342
81	0xbce824b9	-0.028337823
82	0x3d093e37	0.0335066
83	0xbd7fa658	-0.062414497
84	0x3c1124bf	0.008858859
85	0xbd922317	-0.07135599
86	0x3c762da2	0.015025528
87	0xb990599d	-0.00027532587
88	0xbd145e2e	-0.03622263
89	0xbc57ec56	-0.0131789055
90	0xbd40dfb3	-0.047088336
91	0xbd47d29b	-0.048784833
92	0x3d972920	0.07380891
93	0x3d5b8544	0.05359389
94	0xbd68f8d2	-0.05687792
95	0xbb1d12db	-0.0023967538
96	0x3c16e228	0.009209193
97	0x3d4351da	0.04768548
98	0x3dce4eb7	0.100736074
99	0x3abddccc	0.0014485358
100	0xbc5a1a42	-0.013311924
101	0xbd404eae	-0.046950035
102	0xbcc65662	-0.024211112
103	0xbd12da4b	-0.03585271
104	0xbbf2d2ca	-0.007410382
105	0x3d2b21aa	0.04178015
106	0x3bd4619d	0.006481363
107	0xbdf3c395	-0.11902539
108	0xbe2b4b98	-0.16728055
109	0xbdaa7fdb	-0.08325168
110	0xbd7942a5	-0.060854573
111	0x3c8534b5	0.016260484
112	0xbd0983de	-0.033573024
113	0xbd6fa230	-0.058504283
114	0xbda51f0b	-0.080625616
115	0xbc9918db	-0.01868861
116	0x3d732eae	0.05937069
117	0xbd14a2bf	-0.03628802
118	0xbc43d0bd	-0.011951623
119	0xbd80b9d2	-0.062854424
120	0xbd86caba	-0.06581636
121	0x3ce8c95e	0.028416332
122	0x3dc30f8e	0.09524451
123	0x3c3a6ade	0.011378018
124	0xbc9ab61f	-0.01888567
125	0xbba0b98e	-0.0049049323
126	0x3cc335d3	0.023829376
127	0xbbc71383	-0.006075324
128	0x3d99faee	0.07518564
129	0x3d72d80b	0.059288066
130	0x3de1c82b	0.11024507
131	0x3d2da3f4	0.042392686
132	0x3c8c59c4	0.017132647
133	0xbd73bc14	-0.059505537
134	0xbb115817	-0.002217775
135	0xbd8e17d1	-0.06938136
136	0x3d02af2f	0.03190535
137	0xbcf0a5c2	-0.029375914
138	0xbde1ea95	-0.11031071
139	0x3ca8ff77	0.020629628
140	0xbd0dfd99	-0.034665678
141	0xbbea3c46	-0.0071482984
142	0x3c80225b	0.015641382
143	0xbda7d9d9	-0.08195848
144	0xbe238a1f	-0.15970658
145	0x3d21ea57	0.039530125
146	0x3bdeb799	0.006796789
147	0xbc9827d5	-0.01857368
148	0xbd49873a	-0.049201228
149	0xbbc38126	-0.0059663234
150	0xbd654b7a	-0.055980183
151	0x3dacde75	0.08440868
152	0x3e061fa0	0.13098001
153	0xbdb5570f	-0.08854496
154	0xbd8f3efd	-0.06994436
155	0x3d2eb665	0.042654414
156	0x3d872475	0.065987505
157	0x3d9a92a9	0.075475045
158	0xbd119f44	-0.03555228
159	0xbc5808bf	-0.013185679
160	0x3cbfba1e	0.023404177
161	0x3de35e30	0.11101949
162	0x3d9dfeb2	0.07714595
163	0xbc20d3b3	-0.009816098
164	0x3ddd369c	0.108014315
165	0xbd92c422	-0.071663156
166	0xbcbbd0e1	-0.02292675
167	0xbd38bb1a	-0.04510031
168	0xbcad69da	-0.021168638
169	0x3c4a4645	0.012345855
170	0x3e00f53c	0.1259355
171	0x3c978464	0.018495746
172	0x3d389203	0.045061123
173	0x3dcc8c60	0.09987712
174	0xbc6172c4	-0.013760272
175	0x3caaa791	0.020831855
176	0x3d56c488	0.05243352
177	0x3d8669e1	0.065631635
178	0x3c975e66	0.01847763
179	0x3d81e206	0.06341939
180	0x3d2a04be	0.04150843
181	0xbd18dfb8	-0.03732273
182	0xbb28f3a6	-0.0025779991
183	0x3d486572	0.04892487
184	0xbd76ca37	-0.06025144
185	0xbd54b03a	-0.051925875
186	0xbd80acac	-0.062829345
187	0xbd00a3ff	-0.0314064
188	0x3d56981c	0.052391157
189	0xbd000505	-0.031254787
190	0xbdcfd2bd	-0.10147617
191	0xba392267	-0.0007062316
192	0xbdca37a7	-0.09873896
193	0xba234eea	-0.00062297157
194	0xbc894183	-0.016754871
195	0x3d83d794	0.06437603
196	0xbd6a761c	-0.057241544
197	0xbdbf1465	-0.09330062
198	0x3ce07811	0.027401002
199	0x3d7ef263	0.062242877
200	0xbd1ca595	-0.03824385
201	0x3c9d0c82	0.019171003
202	0xbd8bf46a	-0.06833728
203	0xbdc598f4	-0.09648314
204	0xbce5caf9	-0.028050886
205	0xbc39917c	-0.01132619
206	0xbd233fff	-0.039855953
207	0xbca0d26d	-0.019631589
208	0xbd7097e3	-0.0587386
209	0xbdf946e1	-0.12171722
210	0xbd8bc3d9	-0.06824464
211	0xbc99e889	-0.01878764
212	0xbd296c21	-0.041362885
213	0x3c89af9e	0.016807374
214	0xbd1d5db7	-0.03841945
215	0xbd92f1c8	-0.07175022
216	0x3cf84736	0.030307394
217	0xbbf615d9	-0.0075099287
218	0x3d15bd98	0.036557764
219	0x3d83a3b2	0.06427707
220	0x3ce9d19b	0.02854233
221	0xbd77811f	-0.060425874
222	0x3d44fd16	0.048092924
223	0x3d11833a	0.035525538
224	0x3db6419e	0.08899234
225	0x3c429d2f	0.011878296
226	0xbdbad289	-0.09122188
227	0xbd0713c6	-0.03297784
228	0xbd28602a	-0.041107334
229	0xbde8c25a	-0.113651946
230	0xbb399fa1	-0.0028323906
231	0xbd98c0bb	-0.074586354
232	0xbd5316d4	-0.051535442
233	0xbb0c4241	-0.0021401795
234	0xbd196493	-0.03744943
235	0x3c72f4bf	0.01482886
236	0xbc1fc6cc	-0.009751987
237	0xbdd38fd2	-0.10330166
238	0xbbd23e8f	-0.006416149
239	0x3d5bcaca	0.05366019
240	0x3d793e6c	0.060850546
241	0xbd53a781	-0.051673416
242	0x3bd81f86	0.0065955548
243	0xbce7eda3	-0.028311556
244	0x3ccb23b5	0.0247973
245	0x3e080fa0	0.1328721
246	0x3c562af6	0.013071766
247	0x3a238596	0.00062378624
248	0x3c829b5e	0.015943225
249	0xbd46a2b5	-0.048495013
250	0xbda05247	-0.07828193
251	0xbdee540d	-0.11637125
252	0xbd5d2db0	-0.05399865
253	0xbd990580	-0.07471752
254	0xbdb8d39a	-0.09024735
255	0xbd2d9eed	-0.04238789

conv2.bias f4 [60]
0	0xbcc260e2	-0.023727838
1	0x3b6445ec	0.0034831716
2	0x3b986887	0.0046511325
3	0x3d1933ca	0.037402906
4	0xbd24b1a4	-0.040208474
5	0xbd115e3a	-0.035490252
6	0xbd6f597a	-0.05843494
7	0xba13c392	-0.0005636747
8	0xbd1941a7	-0.037416127
9	0xbd168934	-0.03675194
10	0x3d1758ba	0.03694985
11	0x3c8048e3	0.015659755
12	0x3d0c286b	0.034218233
13	0xbd41545d	-0.047199596
14	0x3d5e44cb	0.054264825
15	0xbd111991	-0.035424773
16	0x3b28162b	0.0025647979
17	0xbc81d64f	-0.01584926
18	0x3d98754b	0.07444247
19	0xbd9b5eac	-0.075864166
20	0xbd07ab86	-0.033122562
21	0xbb1d234e	-0.0023977342
22	0xbb67ef3b	-0.0035390395
23	0xbd6e74c2	-0.058216818
24	0xbc94d073	-0.018165803
25	0xbd04a47a	-0.03238342
26	0x3c95dac9	0.018292801
27	0xba999888	-0.0011718431
28	0xbcfe66c4	-0.031054862
29	0xbd21d083	-0.039505493
30	0xbc96db17	-0.018415017
31	0x3c4712bb	0.012150462
32	0x3d05d1d7	0.032670822
33	0xba9fb637	-0.0012185042
34	0xbc4407a5	-0.011964713
35	0xbcbab13f	-0.022789596
36	0xbd57ed3e	-0.052716486
37	0x3cb09594	0.0215557
38	0x3bb2944b	0.005449807
39	0x3d3f02dc	0.046633586
40	0x3c798f51	0.015231923
41	0xbc8fa5df	-0.017535148
42	0x3cc4b873	0.024013733
43	0xbc58e059	-0.013237082
44	0xbc89e300	-0.016831875
45	0xbc7c68d1	-0.01540585
46	0xbbbf3357	-0.0058349776
47	0xbd22994d	-0.03969698
48	0xbcb8102a	-0.022468645
49	0xbda0a870	-0.07844627
50	0x3cb9b102	0.022667412
51	0x3d5ccd5d	0.053906787
52	0x3dc677af	0.096907966
53	0xbc9331ef	-0.017968146
54	0x3d22adba	0.03971646
55	0xbc433dc5	-0.0119165825
56	0xbc3138f7	-0.010816804
57	0x3d20a391	0.03921849
58	0x3d2e9042	0.042618044
59	0xbc90301a	-0.017601062

inp_layer.weight f4 [100, 960]
0	0x3c906a81	0.01762891
1	0x3bfe05d5	0.00775216
2	0xbd6e8cd4	-0.058239773
3	0xbd1eb8b4	-0.038750365
4	0x3bc5715f	0.006025478
5	0x3cf7d422	0.03025252
6	0xbd561338	-0.052264422
7	0xbcd260f2	-0.025680993
8	0x3d817eda	0.06323023
9	0xbd13ed55	-0.03611501
10	0xbce529ca	-0.027974028
11	0x3cc04a92	0.023473058
12	0xbccba006	-0.024856579
13	0x3c05c198	0.008163832
14	0x3d98806e	0.07446371
15	0xb99c339b	-0.00029793088
16	0xbd91e6bc	-0.07124087
17	0xbcf8f0e0	-0.030388296
18	0xbe33da2f	-0.17563699
19	0x3bf6978c	0.00752539
20	0x3ceba5ef	0.028765647
21	0x3d433f0b	0.047667544
22	0xbd004d89	-0.031323943
23	0x3d148700	0.03626156
24	0xbc992f1d	-0.018699223
25	0xbd2948f3	-0.041329335
26	0xbd9c72ec	-0.07639107
27	0xbd1af8e3	-0.037835013
28	0x3cd9a75b	0.02656906
29	0xbd8b95fa	-0.06815715
30	0xbd095e71	-0.033537332
31	0xba7b8d62	-0.0009595958
32	0x3d82a10d	0.06378374
33	0x3d2b16f0	0.04176992
34	0xbbb2bf4b	-0.005454933
35	0xbded9e64	-0.11602476
36	0x3e01abbc	0.12663168
37	0x3d06da35	0.032922942
38	0x3d455060	0.048172355
39	0xbd399d92	-0.045316286
40	0x3dfe5bd1	0.12419856
41	0x3d8994da	0.06717844
42	0x3bf1f7ad	0.0073842616
43	0x3d1e86da	0.038702823
44	0xbd899ceb	-0.06719383
45	0xbd31e623	-0.043432366
46	0xbd4487bc	-0.04798101
47	0x3c1d1717	0.009588025
48	0x3c9d0028	0.019165114
49	0x3dbc3bf5	0.091911234
50	0xbb39b728	-0.002833793
51	0xbbfb3719	-0.0076664803
52	0x3caa4b8f	0.020787982
53	0x3d2cbf79	0.04217479
54	0x3d3301f7	0.043703046
55	0xbcca1f6d	-0.024673188
56	0x3d8cd2cd	0.068761446
57	0x3da5a555	0.08088175
58	0xbd01e388	-0.03171113
59	0x3da27c14	0.07933822
60	0x3bbafa49	0.005706106
61	0x3d62e3a9	0.055392895
62	0x3e0341b6	0.12818035
63	0x3db7c0f6	0.08972351
64	0x3d2962a9	0.041353855
65	0x3d2e1312	0.042498656
66	0x3d2c81aa	0.042115845
67	0xbce9f41b	-0.028558781
68	0x3d2587d0	0.040412724
69	0x3ca8fe4e	0.020629074
70	0x3b9cbdc4	0.004783364
71	0xbc101ef6	-0.008796444
72	0x3d3ecd94	0.046582773
73	0xbd126ac5	-0.035746355
74	0x3d32fa1c	0.043695554
75	0xbbe1f2bf	-0.0068953927
76	0x3dcffd5e	0.10155748
77	0xbd050641	-0.032476667
78	0xbcdad31e	-0.026711997
79	0xbbea2a6d	-0.007146171
80	0x3cbe1c85	0.023206959
81	0x3cdbb718	0.026820704
82	0x3b178bac	0.0023124022
83	0xbc1d8e7d	-0.009616491
84	0x3cfb7d31	0.030699344
85	0x3c1234c9	0.008923718
86	0xbb9e4659	-0.0048301634
87	0xbd8a8c1e	-0.067650065
88	0x3b40f68c	0.0029443828
89	0xbc1b435f	-0.009476512
90	0x3cb52145	0.02211059
91	0xbc0b0794	-0.0084856935
92	0xbba248e9	-0.004952539
93	0xbc80c5ac	-0.015719257
94	0x3cd1ac12	0.025594745
95	0xbbc0f482	-0.0058885226
96	0xbd0f8b84	-0.03504516
97	0xbbb6a520	-0.0055738837
98	0xbb427ce6	-0.0029676496
99	0xbccc7e03	-0.02496243
100	0xbb077518	-0.0020669159
101	0xbd8f6577	-0.07001775
102	0x3c1e4eb7	0.009662322
103	0x3c0b297d	0.008493778
104	0x3d06c6fd	0.032904614
105	0x3b8aa066	0.0042305468
106	0xbcd4ba89	-0.025967853
107	0x3b3cd22f	0.0028811803
108	0x3c8eea1b	0.017445615
109	0x3d19919f	0.03749239
110	0x3c392629	0.011300602
111	0xbcd55047	-0.026039256
112	0xbd16cbc8	-0.036815435
113	0xbb1c90f3	-0.0023890107
114	0xbc1f2738	-0.00971394
115	0x3c9ba71e	0.019000586
116	0x3d786aab	0.0606486
117	0xbd83149c	-0.06400415
118	0xbd1e830a	-0.038699187
119	0x3da9f46a	0.082985714
120	0x3e063f27	0.13110028
121	0x3d0aaeb9	0.033858035
122	0xbb7e2d29	-0.0038784242
123	0xbbf9895b	-0.007615251
124	0x3dc383c6	0.09546618
125	0xbdb6bd24	-0.089227945
126	0xbcbcec3e	-0.023061868
127	0xbe02c4b2	-0.12770346
128	0x3daea5c6	0.085277125
129	0x3d3a0f0f	0.045424517
130	0x3c4d4319	0.012528204
131	0x3cf97c58	0.0304548
132	0x3d45991c	0.04824172
133	0x3d30db46	0.043177865
134	0x3cacf8a7	0.02111466
135	0xbd107f20	-0.035277486
136	0xbcb104d8	-0.021608755
137	0xbb42e990	-0.0029741265
138	0xbc498b16	-0.012301227
139	0x3cb2f4d9	0.021845268
140	0xbc19459e	-0.009354977
141	0xbda5f25b	-0.08102866
142	0xbc6660dd	-0.01406118
143	0x3db13edf	0.0865457
144	0xbc6a3e82	-0.01429713
145	0xbc6cd804	-0.014455799
146	0xbc256cbe	-0.010096727
147	0x3cff9151	0.031197222
148	0xbcfa51a9	-0.030556517
149	0xbd1521ff	-0.036409374
150	0xbc69a978	-0.014261596
151	0x3d8e384c	0.069443315
152	0x3d7448f1	0.059639875
153	0xbd70c3b4	-0.058780387
154	0x3c1dff48	0.009643383
155	0x3c81afae	0.01583084
156	0x3cf12518	0.029436633
157	0x3c6d6c1d	0.014491108
158	0xbcf5a713	-0.029986894
159	0xbdfc53e3	-0.123206876
160	0x3da41f7c	0.08013818
161	0x3e177ff1	0.147949
162	0x3e1df700	0.15426254
163	0x3cca2be6	0.024679136
164	0x3d86d954	0.06584421
165	0xbcad3bea	-0.021146733
166	0xbc728419	-0.014802002
167	0x3e01e86e	0.12686321
168	0x3e123b39	0.14280404
169	0x3d56e91f	0.052468415
170	0xbced1920	-0.028942645
171	0x3baeab18	0.0053304546
172	0x3d596a15	0.053079683
173	0x3d543a21	0.05181325
174	0xbd2bae40	-0.041914225
175	0x3d1d16d7	0.03835186
176	0x3dd014c0	0.10160208
177	0xbd20d3ab	-0.039264362
178	0xbbb66cb2	-0.0055671567
179	0xbdb4dccc	-0.08831176
180	0x3df0a028	0.117492974
181	0x3d8a56af	0.06754815
182	0x3cae21dd	0.021256382
183	0xbd8017b1	-0.06254519
184	0x3d11eafb	0.035624485
185	0x3c9d9daa	0.01924022
186	0x3c71d8f8	0.014761202
187	0xbc91c56c	-0.017794333
188	0x3b997743	0.0046834066
189	0xbc5f285d	-0.013620463
190	0x3c9943b8	0.018709049
191	0x3d155e4a	0.036466874
192	0x3c1c26c9	0.0095307315
193	0x3ccd27a7	0.025043322
194	0xbdac77b5	-0.0842127
195	0x3c8bf8c2	0.01708639
196	0xbcaeaef1	-0.021323653
197	0xbbff6733	-0.0077942847
198	0xbcdd799e	-0.02703553
199	0xbc25abee	-0.010111792
200	0xbd892946	-0.066973254
201	0x3d0f2d0d	0.034955073
202	0xbc4ff6b4	-0.012693096
203	0x3bd2838e	0.006424374
204	0x388837c7	6.495375e-05
205	0x3ca76beb	0.020437201
206	0x3c87e058	0.016586468
207	0x3d1ce960	0.0383085
208	0xbd8b22e3	-0.067937635
209	0x3ccc9705	0.024974355
210	0x3d3e1cc1	0.04641414
211	0x3d56218b	0.052278083
212	0xbd09a98c	-0.033608958
213	0x3d2b3494	0.04179819
214	0x3d6fb0a6	0.058518074
215	0x3d86814c	0.0656763
216	0x3d9a230e	0.075262174
217	0xbc4bdcd2	-0.012442784
218	0x3b1c30d9	0.0023832826
219	0x3d3dad8a	0.046308078
220	0x3dec9d68	0.1155346
221	0xbd2e6445	-0.042576093
222	0xbcbd2fc8	-0.023094073
223	0xbc80318c	-0.015648626
224	0x3ded3c89	0.11583812
225	0x3deccd54	0.11562601
226	0x3c898ce3	0.016790813
227	0xbd67fa02	-0.05663491
228	0x3c94df56	0.018172901
229	0x3d39f6f3	0.045401525
230	0x3cb3fbb6	0.021970611
231	0x3cecdecb	0.02891483
232	0x3c5b7a1b	0.013395811
233	0x3c3951e0	0.011311024
234	0xbcb62ea8	-0.022239044
235	0x3da1b7b8	0.0789637
236	0xbd87a167	-0.06622582
237	0xbd63974c	-0.05556421
238	0xbddcf9f3	-0.107898615
239	0xbca9aa3a	-0.020711053
240	0x3c9181cb	0.017762085
241	0x3c16dd34	0.009208012
242	0x3dcc8cc9	0.0998779
243	0x3aa872c4	0.0012851586
244	0x3df9bd0f	0.12194263
245	0x3ccf02a5	0.025269816
246	0xbd150ede	-0.03639113
247	0x3db07a39	0.08617062
248	0x3d4bd9d6	0.04976829
249	0xbaceb37d	-0.0015770044
250	0xbad69698	-0.0016371785
251	0x3cff520b	0.03116705
252	0xbb32f759	-0.0027308075
253	0x3a4bc8d6	0.00077737623
254	0x3d0366d4	0.032080486
255	0xbc090ed5	-0.008365353

inp_layer.bias f4 [100]
0	0xbc9adac7	-0.01890315
1	0x3b94a8bf	0.0045367177
2	0xbcf038f6	-0.029324036
3	0x3b0b67d4	0.0021271603
4	0x39832f3b	0.00025021457
5	0xbc849aa0	-0.016187012
6	0xbc201e7c	-0.009772893
7	0x3ceea000	0.029129028
8	0xbd37d13d	-0.04487728
9	0xbcfc7c7c	-0.030821078
10	0x3bfb4214	0.0076677892
11	0xbca2b6de	-0.019862588
12	0x3d073d54	0.03301747
13	0xbcc62aa6	-0.024190258
14	0xbc1a8c8a	-0.009432921
15	0xbaa3d1e0	-0.0012498461
16	0xbc778977	-0.015108458
17	0x3cdf3e7e	0.027251478
18	0xbd03275f	-0.03201997
19	0x3b5b2e31	0.003344428
20	0xbc2f4a99	-0.010698938
21	0x3ba683aa	0.0050816135
22	0x3c1c9223	0.009556326
23	0x3993eb3f	0.00028213297
24	0xbc332995	-0.010935207
25	0xbce60e30	-0.028082937
26	0xbbfdc4ea	-0.0077444213
27	0x3bef6fb1	0.007307016
28	0x3b837088	0.0040112175
29	0xbcde30b7	-0.027122838
30	0xbbebd9bd	-0.0071975873
31	0xbcc7dcaf	-0.024397222
32	0x3b94af99	0.0045375344
33	0x3c92f86a	0.017940719
34	0xbd00a34b	-0.03140573
35	0x3c8597e5	0.01630778
36	0xbd2a921f	-0.04164326
37	0xbca44490	-0.020052224
38	0xbcaad745	-0.020854602
39	0xbcb7ce9f	-0.022437392
40	0x3d058fdf	0.03260791
41	0x3bd14950	0.0063869134
42	0x3b919665	0.0044429773
43	0xbcfb5a2b	-0.030682644
44	0x3c1e7405	0.009671216
45	0x3cce36e7	0.025172664
46	0x3c7851b1	0.0151561955
47	0x3ccb93aa	0.024850685
48	0x3c38e6a1	0.011285455
49	0x3ccc73e7	0.02495761
50	0x3bd392ab	0.006456693
51	0xbcf50450	-0.029909283
52	0xbd28b7fe	-0.041191094
53	0xb92f0be3	-0.00016693729
54	0xbd0d1e02	-0.034452446
55	0x3c95711e	0.018242415
56	0xbcf94adb	-0.030431202
57	0x3b988e05	0.004655602
58	0xbc70ca70	-0.014696702
59	0xbc5700ea	-0.0131227765
60	0x3d125a53	0.03573067
61	0x3c49745f	0.012295811
62	0x3b476a85	0.003042848
63	0x39a70ee3	0.00031863814
64	0x3cb95374	0.022622801
65	0x3bed7a38	0.0072472356
66	0xbafc6b3e	-0.0019258035
67	0x3c569261	0.013096423
68	0xbbceebf9	-0.006314751
69	0xbbce278c	-0.0062913354
70	0xbcb80698	-0.022464082
71	0xbcb83d24	-0.022490092
72	0xbcaddc96	-0.021223348
73	0xbcd1d0db	-0.025612285
74	0xbcd4ba70	-0.025967807
75	0x3b85ffa6	0.0040893136
76	0x3cf29cae	0.029615726
77	0x3cd792de	0.026315149
78	0xbc6b1dc2	-0.0143503565
79	0x3c7dd28c	0.015492093
80	0x3c6df138	0.014522843
81	0xbd1414ff	-0.036152836
82	0xbcaf3f24	-0.021392412
83	0xbca3b6ea	-0.019984681
84	0xbd35acd8	-0.04435429
85	0x3cd9265a	0.026507545
86	0xbcb65894	-0.022259034
87	0xbc3eda5a	-0.011648739
88	0xbb9a4157	-0.004707496
89	0x3cc66e39	0.02422248
90	0x3d1e1ebf	0.03860354
91	0x3c7bb494	0.015362877
92	0xbbdad4be	-0.006678193
93	0x3cf1f8c0	0.029537559
94	0x3c92f350	0.017938286
95	0xbcdfa30a	-0.027299423
96	0xbc8e9cc6	-0.01740874
97	0x3bb268d6	0.0054446263
98	0xbc9230b5	-0.017845491
99	0xbd2d3462	-0.042286284

classifier.0.0.weight f4 [100, 100]
0	0xbc75a638	-0.014993243
1	0x3dcf6a3c	0.101276845
2	0x3ce84fb8	0.028358325
3	0x3d84a16f	0.064761035
4	0xbe0b7432	-0.13618544
5	0x3da8e029	0.0824588
6	0xbd589a4b	-0.05288152
7	0x3d5fee16	0.054670416
8	0x3dcb70b2	0.09933604
9	0xbddee7f6	-0.10884087
10	0xbce261e1	-0.027634563
11	0x3de593f2	0.11209859
12	0xbde134b3	-0.1099638
13	0x3dd75d26	0.105158135
14	0x3ddbd2bc	0.10733554
15	0x3d784c7d	0.06061982
16	0xbd2e70e5	-0.042588133
17	0xbe60bb8e	-0.21946546
18	0x3d966b6a	0.07344706
19	0xbda9c347	-0.08289199
20	0x3d9f73b0	0.077857375
21	0xbd587589	-0.052846465
22	0x3d116b53	0.035502743
23	0xbd83b284	-0.064305335
24	0xbd3b2029	-0.045684967
25	0xbd158d6b	-0.03651182
26	0xbd6f14b0	-0.05836934
27	0xbe2cf1f0	-0.16889167
28	0x3e14e629	0.14540924
29	0xbcca0000	-0.024658203
30	0xbdc57014	-0.09640518
31	0x3d56cf20	0.052443624
32	0xb9a68756	-0.0003176282
33	0x3d0c8678	0.034307927
34	0x3dabdca5	0.08391694
35	0x3dcb68d8	0.09932107
36	0x3d883d76	0.06652348
37	0x3d12fc42	0.035885103
38	0xbcc6953e	-0.024241086
39	0xbcb6db0d	-0.022321248
40	0xbd7dcd92	-0.061963625
41	0xbd29a903	-0.041420948
42	0x3d6c8f1d	0.05775367
43	0x3ced8355	0.028993288
44	0xbcdf9486	-0.027292501
45	0x3e2c3b40	0.16819477
46	0xbd254346	-0.04034736
47	0x3cbe8bb0	0.023259968
48	0xbded0955	-0.115740456
49	0x3c291b05	0.010321383
50	0x3d0638c7	0.03276899
51	0x3bbf7465	0.0058427327
52	0x3dffc81e	0.12489341
53	0xbe08933a	-0.13337412
54	0x3c6e4a1b	0.014544035
55	0xbd9662c5	-0.073430575
56	0x3e1a5295	0.15070565
57	0x3c02e380	0.007988811
58	0xbd0d1827	-0.03444686
59	0xbd38dc70	-0.0451321
60	0x3e30c3f9	0.17262258
61	0x3d897084	0.06710914
62	0x3d54010e	0.05175882
63	0xbe181748	-0.14852631
64	0x3d4a96d1	0.049460236
65	0xbda2cad4	-0.07948843
66	0xbde64027	-0.11242705
67	0x3dbac1be	0.09118985
68	0x3ba37ac1	0.0049889986
69	0x3dad338e	0.08457099
70	0x3cc709bd	0.024296636
71	0xbc4faf57	-0.012676082
72	0xbdd72ccf	-0.105065934
73	0x3dd1610a	0.10223587
74	0x3dd1daa9	0.10246784
75	0x3dbfcc48	0.093651354
76	0x3d3723d8	0.044711918
77	0x3c8cc105	0.017181883
78	0xbcf5c2c8	-0.030000106
79	0x3c5dc03a	0.0135346
80	0x3dd5f332	0.104467764
81	0x3d9452da	0.07242365
82	0x3d434e62	0.047682174
83	0x3c157e1d	0.009124306
84	0xbc8494b4	-0.016184188
85	0xbb338960	-0.0027395114
86	0xbc80935b	-0.015695265
87	0x3cd7510e	0.026283767
88	0xbdf1d399	-0.11807937
89	0x3d2f33ce	0.042774014
90	0xbddda250	-0.10821974
91	0x3ac7dbed	0.0015248038
92	0xbd1818e3	-0.03713311
93	0xbe1fa49b	-0.15590136
94	0x3db18f89	0.08669955
95	0x3df482bb	0.11938997
96	0xbc85cd46	-0.016333234
97	0x3e2071a8	0.15668356
98	0x3d01c461	0.031681422
99	0x3d752a8f	0.05985504
100	0xbda4548c	-0.080239385
101	0xbe1c4713	-0.15261488
102	0x3ddc6e91	0.10763276
103	0xbc287f07	-0.010284192
104	0xbdec028e	-0.11523925
105	0xbdd61c4c	-0.10454616
106	0xbdb1f0ef	-0.086885326
107	0xbcb220bd	-0.021744126
108	0x3ca6ea14	0.020375289
109	0x3d94d863	0.07267835
110	0x3d83ab7d	0.06429193
111	0xbd427098	-0.04747066
112	0xbd81fb48	-0.06346756
113	0xbd8ee59a	-0.06977387
114	0xbd981e6f	-0.0742768
115	0xbd3cd6b6	-0.0461032
116	0xbdcfc65b	-0.10145255
117	0xbdd31a46	-0.10307746
118	0x3db9c55d	0.09070847
119	0xbe017b47	-0.12644683
120	0xbd97a393	-0.07404246
121	0xbdd8734a	-0.10568865
122	0x3dcb871f	0.09937882
123	0x3d17c58c	0.03705363
124	0xbdb2254e	-0.086985216
125	0x3c053762	0.00813088
126	0xbdc0cd65	-0.09414176
127	0x3caf30bf	0.021385549
128	0x3c576236	0.013145974
129	0x3ca5b437	0.020227535
130	0xbc8948b6	-0.016758304
131	0xbcd9fb1b	-0.026608994
132	0xbdb95e02	-0.09051134
133	0xbd503335	-0.050830085
134	0xbd03abb7	-0.032146182
135	0x3e535fde	0.20642039
136	0x3ce365c5	0.027758488
137	0xbdca2a6a	-0.09871371
138	0x3e05108f	0.12994598
139	0xbc72978b	-0.0148066385
140	0xbdaa0471	-0.083016284
141	0x3b49a8fa	0.0030770884
142	0x3e0b9364	0.13630444
143	0x3cc19011	0.023628267
144	0x3e1a1649	0.15047564
145	0x3e1d27ac	0.15347165
146	0x3d051111	0.03248698
147	0x3c71e5fb	0.014764304
148	0xbdd04396	-0.10169141
149	0x3db385d9	0.08765764
150	0x3d143142	0.03617979
151	0xbcd0c8a9	-0.025486307
152	0xbc64a469	-0.013955214
153	0xbe4aefeb	-0.19818084
154	0xbce5e202	-0.02806187
155	0x3cb8d825	0.022564003
156	0x3dbf0727	0.09327536
157	0x3bbcb4ac	0.0057588425
158	0xbd957ec9	-0.07299573
159	0x3df707dd	0.12062047
160	0x3c1bad63	0.009501788
161	0x3d2e7847	0.042595174
162	0xbcbdbb94	-0.023160733
163	0xbde8f47e	-0.11374758
164	0x3d639839	0.055565093
165	0xbdec0204	-0.11523822
166	0x3db29d70	0.08721435
167	0xbd0bb89b	-0.0341116
168	0xbdad86cd	-0.08472977
169	0xbc6e3f16	-0.014541408
170	0x3dc40a86	0.0957232
171	0xbd96c74e	-0.07362233
172	0x3d8fd6f9	0.07023425
173	0x3d6832d3	0.056689095
174	0x3d081410	0.033222258
175	0x3e02f93f	0.12790392
176	0xbd412618	-0.04715547
177	0xbc8b734b	-0.01702275
178	0xbcb2a89c	-0.021808915
179	0x3d88ebdb	0.06685611
180	0xbda63421	-0.081154115
181	0x3e2c49bf	0.16825007
182	0x3dcd21f4	0.10016242
183	0xbdbce062	-0.09222485
184	0xbd67bf42	-0.056578882
185	0xbe0ad228	-0.13556731
186	0xbb499db1	-0.0030764157
187	0xbd61e7ca	-0.055152692
188	0x3bca9047	0.00618175
189	0xbc942b63	-0.018087095
190	0xbd223703	-0.039603245
191	0xbde151d7	-0.11001938
192	0x3d2ed80a	0.0426865
193	0xbe191013	-0.14947538
194	0xbdecda9a	-0.115651324
195	0xbd2cbbeb	-0.0421714
196	0xbdb70897	-0.08937185
197	0x3dc611d4	0.09671369
198	0x3e014dde	0.1262736
199	0x3e04f1c8	0.12982857
200	0xbc2e617d	-0.01064336
201	0xbd769327	-0.06019893
202	0xbd529164	-0.051408187
203	0xbd9d1a6d	-0.07671056
204	0xbd9840c7	-0.0743423
205	0xbd94ac7c	-0.07259461
206	0xbdfafad3	-0.12254872
207	0x3cf993fd	0.030466074
208	0xbcbd76b4	-0.023127891
209	0x3d906ec8	0.0705238
210	0x3e1e9584	0.15486723
211	0xbd1e3cd2	-0.03863222
212	0xbd0d57ad	-0.034507442
213	0x3d002000	0.031280518
214	0x3d4f07b3	0.050544452
215	0xbcf97b88	-0.030454412
216	0x3de66fcb	0.112517916
217	0xbe1f203b	-0.15539639
218	0x3cd656a4	0.02616436
219	0xbc82679f	-0.015918551
220	0x3bebbdc0	0.007194251
221	0x3b038964	0.0020070905
222	0x3e74d2a2	0.23908475
223	0xbe0895ee	-0.13338444
224	0x3d4cd3a8	0.05000654
225	0xbd54c537	-0.05194589
226	0x3dbf2f27	0.093351655
227	0xbd43baa7	-0.047785427
228	0x3cea4ced	0.028601134
229	0x3c088246	0.008331841
230	0x3d0f0960	0.03492105
231	0xbba03aef	-0.004889838
232	0xbdd0fde3	-0.10204675
233	0xbcc5bdda	-0.02413838
234	0xbd3f8e26	-0.046766423
235	0x3d6847bc	0.056709036
236	0x3e1d3e37	0.15355764
237	0xbdf5a9f8	-0.119953096
238	0xbcc9272e	-0.024554815
239	0x3d9acbb2	0.07558383
240	0x3b3c25d3	0.0028709068
241	0xbe1de08a	-0.15417686
242	0xbd7e4a4e	-0.06208258
243	0xbc03abf8	-0.008036606
244	0x3cc7976b	0.024364194
245	0x3cfd0471	0.030885907
246	0x3d73551c	0.05940734
247	0x3cb32767	0.021869374
248	0x3dc9ea46	0.09859137
249	0xbc563d4e	-0.01307614
250	0x3d808530	0.062754035
251	0x3cb1c415	0.021699945
252	0x3dc689ba	0.09694238
253	0xbda3b0c6	-0.07992701
254	0xbde17d5c	-0.110102385
255	0x3d6f80b0	0.058472335

classifier.0.0.bias f4 [100]
0	0x3d1fa8fc	0.038979515
1	0xbd5d4c11	-0.05402762
2	0x3db910a2	0.090363756
3	0xbd2501fe	-0.040285103
4	0x3d21573f	0.039389845
5	0xbd68581d	-0.056724656
6	0x3c99460a	0.018710155
7	0xbc82dff3	-0.015975928
8	0xbd044d9b	-0.032300573
9	0x3db90c61	0.09035564
10	0x3cde0705	0.027102957
11	0x3cedf3bb	0.029046884
12	0xbd5c5a87	-0.05379727
13	0xbc847c49	-0.016172545
14	0x3dc2f892	0.09520067
15	0x3dacb20e	0.08432399
16	0x3d2ba0e2	0.041901477
17	0xbd31be09	-0.043394122
18	0xbd8906d5	-0.06690756
19	0xbdc0b100	-0.0940876
20	0x3db43092	0.087983266
21	0xbc6c81c7	-0.014435238
22	0x3dbd45b6	0.09241812
23	0x3cb3f817	0.021968884
24	0x3d8cea62	0.068806425
25	0xbd24d463	-0.04024161
26	0x3d0b3b3e	0.033992045
27	0x3d900770	0.070326686
28	0x3cbdd4b0	0.023172706
29	0xbd305290	-0.043047488
30	0x3c89c591	0.01681784
31	0x3bb938ab	0.0056525073
32	0x3d887be1	0.06664253
33	0x3db57452	0.08860077
34	0x3dab2d5a	0.083582595
35	0x3b394b60	0.0028273687
36	0xbb1ff8e4	-0.0024409825
37	0xbd80decb	-0.062924944
38	0x3d5294fe	0.05141162
39	0xbdadabb6	-0.08480017
40	0xbdb3904e	-0.08767758
41	0xbd97bb4a	-0.074087694
42	0xbbbdf4f8	-0.005797025
43	0xbd2b0e63	-0.041761767
44	0xbd6fb596	-0.058522783
45	0x3da92f55	0.08260981
46	0x3dbbb645	0.091656245
47	0x3c48f0f2	0.012264477
48	0xbcbd22ed	-0.023087943
49	0xbbbe52bb	-0.005808202
50	0x3dcb3454	0.0992209
51	0xbc5dff3c	-0.013549622
52	0x3bcabb2d	0.006186864
53	0x3bf241bd	0.0073930905
54	0x3d5ad03c	0.053421244
55	0x3da4f43a	0.08054395
56	0x3c08b804	0.008344654
57	0x3d720197	0.059083547
58	0xbdc24bf8	-0.09487146
59	0x3d50ed1b	0.05100737
60	0x3d570c8c	0.0525022
61	0x3d5256a4	0.05135216
62	0xbb8686c7	-0.004105422
63	0xbce39893	-0.027782714
64	0x3bfe99fa	0.0077698203
65	0xbce1fab6	-0.027585369
66	0xbd514dc7	-0.051099565
67	0x3a7eb72a	0.00097166246
68	0xbbe6d4d8	-0.007044416
69	0x3d1adfd4	0.037811115
70	0xbcca5a25	-0.024701187
71	0xbdbc9f78	-0.09210104
72	0x3dc15f14	0.09441963
73	0x3d8bd9d2	0.06828655
74	0x3d404a57	0.046945896
75	0xbd269936	-0.040673457
76	0xbda6b5a7	-0.08140116
77	0xbd3b1c94	-0.04568155
78	0x3c848d14	0.016180553
79	0x3c6cd598	0.014455222
80	0x3db4b396	0.08823316
81	0x3d38c2f5	0.0451078
82	0x3da8bf3d	0.08239601
83	0xbdb7d7ca	-0.08976705
84	0xbbbb4f6f	-0.0057162563
85	0xbda184a9	-0.07886631
86	0x3db3f4c2	0.08786918
87	0x3b3fd921	0.0029273706
88	0x3dc1f4d4	0.094705254
89	0x3d882a89	0.06648738
90	0xbd70d2e3	-0.058794867
91	0xbd8c067a	-0.06837173
92	0x3db4606a	0.08807452
93	0x3d69b334	0.057055667
94	0x3cda496b	0.026646337
95	0x3dbdc6fd	0.0926647
96	0x3d90316c	0.070406765
97	0xbcc74e0f	-0.024329213
98	0xbdc23c57	-0.09484165
99	0xbda1c003	-0.078979515

classifier.0.1.weight f4 [100]
0	0x3f83e48e	1.0304124
1	0x3f7c4fcb	0.98559254
2	0x3f6d0882	0.92591107
3	0x3f6c36cf	0.9227113
4	0x3f7851cd	0.9699982
5	0x3f7dcce3	0.9914076
6	0x3f8458ad	1.0339562
7	0x3f840933	1.0315307
8	0x3f7d50a5	0.9895118
9	0x3f82dfca	1.0224545
10	0x3f7b8d8b	0.9826285
11	0x3f80d13e	1.0063856
12	0x3f7c6542	0.9859201
13	0x3f7464ae	0.95466125
14	0x3f81963b	1.0123972
15	0x3f82e9d3	1.0227607
16	0x3f7cf029	0.98803955
17	0x3f7f68a7	0.9976906
18	0x3f79b8e4	0.97547746
19	0x3f72f2ad	0.94901544
20	0x3f859b2e	1.0437982
21	0x3f84d5e4	1.0377774
22	0x3f84bded	1.0370461
23	0x3f78dccc	0.9721191
24	0x3f6597c8	0.89684725
25	0x3f7ba75b	0.9830224
26	0x3f824d15	1.0179774
27	0x3f777668	0.9666505
28	0x3f784a76	0.9698862
29	0x3f81c225	1.0137373
30	0x3f7b6ec5	0.98215896
31	0x3f7f6efa	0.9977871
32	0x3f6f3f97	0.93456405
33	0x3f76487b	0.96204346
34	0x3f81ba8d	1.0135056
35	0x3f7e2ee4	0.992903
36	0x3f714ae5	0.94254905
37	0x3f6dcaba	0.9288746
38	0x3f7b98e4	0.9828017
39	0x3f7a87e1	0.97863585
40	0x3f8274ad	1.0191857
41	0x3f7bcf44	0.9836314
42	0x3f77d700	0.9681244
43	0x3f7c5213	0.98562735
44	0x3f71b604	0.9441836
45	0x3f847547	1.034829
46	0x3f7acc4f	0.97968
47	0x3f814231	1.0098325
48	0x3f715e6b	0.94284695
49	0x3f72df52	0.9487201
50	0x3f7fe307	0.9995579
51	0x3f82f59c	1.0231204
52	0x3f82e6fa	1.0226738
53	0x3f8430a3	1.0327343
54	0x3f78889b	0.97083443
55	0x3f75b91b	0.95985574
56	0x3f76a77c	0.9634931
57	0x3f850e4f	1.0394992
58	0x3f812678	1.0089865
59	0x3f790525	0.97273475
60	0x3f82c9ed	1.0217873
61	0x3f82d782	1.0222018
62	0x3f68e0c4	0.90967965
63	0x3f6e1f9e	0.93016994
64	0x3f8312cf	1.0240115
65	0x3f77c1be	0.9678
66	0x3f7ec5a8	0.9952035
67	0x3f88929a	1.0669739
68	0x3f7ad54c	0.97981715
69	0x3f7fae88	0.9987569
70	0x3f83dcd0	1.0301762
71	0x3f74abf9	0.9557491
72	0x3f8115b7	1.0084752
73	0x3f799915	0.9749921
74	0x3f79a9dc	0.9752481
75	0x3f71e34e	0.94487464
76	0x3f83ccff	1.0296935
77	0x3f80273e	1.0011976
78	0x3f7a0ca7	0.97675556
79	0x3f70f949	0.9413038
80	0x3f782f7d	0.9694746
81	0x3f7afd73	0.9804298
82	0x3f80f85b	1.0075792
83	0x3f7e9831	0.99450976
84	0x3f751a40	0.9574318
85	0x3f7d72ab	0.99003094
86	0x3f689503	0.90852374
87	0x3f72b38d	0.9480522
88	0x3f849745	1.0358664
89	0x3f7d09c7	0.98843044
90	0x3f7189bf	0.9435081
91	0x3f7a53eb	0.977843
92	0x3f7435c5	0.95394546
93	0x3f6e20cb	0.9301879
94	0x3f80f583	1.0074924
95	0x3f862e02	1.048279
96	0x3f8071d6	1.003474
97	0x3f80e64f	1.0070285
98	0x3f6c6241	0.92337424
99	0x3f7f827a	0.99808466

classifier.0.1.bias f4 [100]
0	0xbdc26207	-0.094913535
1	0xbe42cb20	-0.19022799
2	0xbe8520af	-0.26001498
3	0xbe469e88	-0.19396412
4	0xbe5030ff	-0.2033119
5	0xbe1587d0	-0.1460259
6	0xbe6828f9	-0.2267188
7	0xbde2bf8c	-0.11071691
8	0xbe49f72f	-0.197232
9	0xbe660894	-0.2246421
10	0xbe5f470b	-0.21804444
11	0xbe802aeb	-0.25032744
12	0xbe30e7ab	-0.17275874
13	0xbe043314	-0.1291011
14	0xbe422714	-0.1896022
15	0xbe3d9c13	-0.18516569
16	0xbe3d1231	-0.1846397
17	0xbd91892e	-0.07106243
18	0xbe60093f	-0.21878527
19	0xbd70bb3b	-0.058772307
20	0xbcd4cb14	-0.025975741
21	0xbe5c5301	-0.21516038
22	0xbe312a41	-0.17301275
23	0xbe105ff3	-0.14099102
24	0xbe87e309	-0.26540402
25	0xbe5cb2b5	-0.21552546
26	0xbe069780	-0.1314373
27	0xbe864a21	-0.2622843
28	0xbd2518bc	-0.04030679
29	0xbe3c9438	-0.18415916
30	0xbd643eec	-0.05572407
31	0xbe73383b	-0.23751919
32	0xbe798a2d	-0.24369116
33	0xbe8be9b2	-0.27326733
34	0xbe2e346c	-0.17012185
35	0xbe76642a	-0.24061647
36	0xbdfda7b1	-0.123855
37	0xbe81f274	-0.2538029
38	0xbdbe6a49	-0.09297616
39	0xbe26f0a8	-0.1630274
40	0xbe2954e7	-0.16536294
41	0xbe13eba8	-0.14445364
42	0xbe0813ee	-0.13288853
43	0xbe52643d	-0.2054605
44	0xbe9581ad	-0.29200497
45	0xbd9ed29e	-0.07755016
46	0xbe3558d6	-0.1770967
47	0xbdf9d9c7	-0.12199741
48	0xbe9de7dd	-0.3084096
49	0xbe7eb9d3	-0.24875574
50	0xbdea5cf7	-0.11443513
51	0xbc79b906	-0.015241867
52	0xbe862024	-0.26196396
53	0xbd7ef228	-0.062242657
54	0xbe13ed0f	-0.144459
55	0xbe21ef46	-0.15813932
56	0xbdccf059	-0.1000678
57	0xbdb46164	-0.08807638
58	0xbdfea29c	-0.12433359
59	0xbe48248a	-0.19545189
60	0xbe13099b	-0.14359133
61	0xbdfa1205	-0.12210468
62	0xbe68b9e0	-0.22727156
63	0xbdf992d3	-0.121862076
64	0xbe6a8325	-0.2290159
65	0xbdf382a9	-0.11890156
66	0xbe44e9e0	-0.19229841
67	0xbcac9523	-0.021067208
68	0xbd67131e	-0.056414716
69	0xbe7d27f8	-0.24722278
70	0xbdc68ab8	-0.09694427
71	0xbe112f8a	-0.14178291
72	0xbde426bc	-0.111402005
73	0xbe8d382a	-0.27581912
74	0xbe85c312	-0.2612539
75	0xbe529528	-0.20564711
76	0xbe848bf6	-0.25888032
77	0xbe2a2c0a	-0.16618362
78	0xbe09d967	-0.13461839
79	0xbe209bb6	-0.15684399
80	0xbe2063d9	-0.15663089
81	0xbe74dd27	-0.23912488
82	0xbe2fec18	-0.17179906
83	0xbe26ee91	-0.16301943
84	0xbde5f151	-0.11227668
85	0xbe519cfa	-0.20470038
86	0xbeb01e1b	-0.3439797
87	0xbe76bf2f	-0.24096368
88	0xbe7ef763	-0.24899058
89	0xbe95c311	-0.29250386
90	0xbe490282	-0.19629863
91	0xbda478fa	-0.08030887
92	0xbe1b8d90	-0.1519072
93	0xbdfb1873	-0.12260523
94	0xbdd1354e	-0.10215245
95	0xbdd8b2c2	-0.1058097
96	0xbe3e759c	-0.18599552
97	0xbe75975e	-0.23983523
98	0xbe909541	-0.28238872
99	0xbe3ebc17	-0.18626438

classifier.0.1.running_mean f4 [100]
0	0xbf7a1d93	-0.97701377
1	0xc0344fb6	-2.8173652
2	0xbf631992	-0.8871089
3	0xbfd1c6d8	-1.6388807
4	0xbee6bf03	-0.45067605
5	0x3dd4beb2	0.10387935
6	0x3f940570	1.1564159
7	0x3f5c2e5f	0.86008257
8	0x3f2caf15	0.67454654
9	0xbf95c442	-1.1700518
10	0xbf9a737b	-1.2066492
11	0xbf87901e	-1.0590856
12	0xbf362aa1	-0.71158797
13	0xbfb15dda	-1.3856766
14	0xbfb5a04a	-1.4189541
15	0x3f117070	0.5681219
16	0xbf1960ce	-0.5991334
17	0x3f1a61a4	0.6030524
18	0xbe9a3665	-0.30119625
19	0x3ea24316	0.31691808
20	0x3fbd1526	1.4772079
21	0xbfb65cb3	-1.424704
22	0x3ec99dd4	0.39378226
23	0xbfe80b85	-1.8128515
24	0x3f674e3b	0.90353745
25	0xbfcd45e0	-1.6036949
26	0xbe93f372	-0.28896672
27	0xbf175e7e	-0.5912856
28	0x3ed1617a	0.4089468
29	0x3e9e6cdc	0.30942428
30	0xbec3a6d0	-0.38213205
31	0x3f82e5a2	1.0226328
32	0x3fd5b06f	1.6694468
33	0x3f800302	1.0000918
34	0x3fb32a8c	1.3997359
35	0xbef50821	-0.47857764
36	0xbe97d1d2	-0.29652268
37	0xbedcab56	-0.4309947
38	0xbf9d067f	-1.2267607
39	0xbf1606e8	-0.5860429
40	0xbf62dbfc	-0.8861692
41	0x3f245e46	0.6420635
42	0xbfbb120c	-1.4614882
43	0x3e150919	0.14554252
44	0x3de9515d	0.11392472
45	0xbfa4ceab	-1.287557
46	0x3dec3c41	0.1153493
47	0x3d7be0b1	0.06149358
48	0x3efbe5ec	0.49198854
49	0xbe8447b8	-0.25835967
50	0xbf7d7067	-0.9899964
51	0x3ef66c7f	0.4812965
52	0xbf98a6ea	-1.1925938
53	0xbf7ccee5	-0.98753196
54	0xbd84cfc6	-0.06484942
55	0x3ed2fb95	0.41207567
56	0x3f428843	0.7598917
57	0xbed3839d	-0.4131135
58	0xbfabdd6e	-1.342695
59	0xbdb1be03	-0.0867882
60	0xbf1a07cf	-0.60168165
61	0xbfbd6c2b	-1.4798635
62	0xbe7c0bbe	-0.24613854
63	0xc0095ab7	-2.1461618
64	0xbf6b03a1	-0.9180241
65	0xbe849567	-0.25895235
66	0xbf23b9cb	-0.6395537
67	0x3f71733a	0.94316447
68	0x3f263336	0.6492189
69	0xbffe5b4e	-1.9871614
70	0x3e514bf8	0.20439136
71	0x3e672a99	0.22574843
72	0xbfa0fdba	-1.2577431
73	0x3f685e7a	0.9076916
74	0x3f4af85a	0.79285204
75	0xbff77a85	-1.9334265
76	0xbefb81ae	-0.49122375
77	0x3f9a6949	1.206338
78	0x3f3861dc	0.7202432
79	0xbeaceae0	-0.33772945
80	0x3f86c1d2	1.0527899
81	0xbfc1b7c2	-1.5134203
82	0xbf7cb65e	-0.9871577
83	0xc0018d2b	-2.0242412
84	0xbe25bb2d	-0.16184683
85	0xbe2e1e26	-0.17003688
86	0x3c0e6fda	0.00869366
87	0xbf09feb3	-0.53904265
88	0xbf9d083c	-1.2268138
89	0xbf139fd0	-0.5766573
90	0xbee91fff	-0.45532224
91	0x3e4509a2	0.19241956
92	0x3f923d53	1.1424965
93	0x3e727f40	0.23681355
94	0xbf4d7c84	-0.8026812
95	0xbf318a54	-0.69351697
96	0x3fbf0916	1.4924648
97	0xc002201a	-2.0332093
98	0xbf16720c	-0.5876777
99	0xbea18b9d	-0.3155183

classifier.0.1.running_var f4 [100]
0	0x3fdba8f2	1.7160933
1	0x40131ea1	2.2987444
2	0x3fc19ac0	1.5125351
3	0x3fd966ee	1.6984537
4	0x3fb367d7	1.4016064
5	0x3fb8dcd7	1.4442395
6	0x4012a375	2.2912266
7	0x3ff9d312	1.9517539
8	0x3fe27e4e	1.7694795
9	0x40031c8a	2.048617
10	0x3ff50ab8	1.9143896
11	0x3ffc3b71	1.970564
12	0x3fc9aa9a	1.5755188
13	0x40096701	2.1469119
14	0x400dc167	2.2149293
15	0x400823e7	2.1271913
16	0x3fa4990c	1.2859206
17	0x3fbc7a78	1.4724874
18	0x400fc88a	2.246615
19	0x3fe0735e	1.7535207
20	0x40381051	2.8759959
21	0x400e0d48	2.2195606
22	0x4008023b	2.1251361
23	0x3fc0e8dc	1.5071063
24	0x3fca7937	1.5818242
25	0x400c8d97	2.196142
26	0x3fd95df1	1.6981794
27	0x3fd67581	1.6754609
28	0x3ffdd3de	1.9830282
29	0x3fad3d42	1.3534319
30	0x3ffbe65d	1.9679676
31	0x4020d482	2.5129704
32	0x3fcc1cf8	1.594634
33	0x3fc20ed2	1.5160773
34	0x40131f5f	2.2987897
35	0x402585db	2.586295
36	0x3fccfb13	1.6014122
37	0x3ff194b7	1.8873509
38	0x3fbb98b4	1.4655976
39	0x3fb0a74f	1.3801059
40	0x3fb61bf0	1.4227276
41	0x3fcfc54a	1.6232083
42	0x3fd09492	1.629534
43	0x4014c084	2.3242502
44	0x3fc312cc	1.5240111
45	0x40344985	2.8169873
46	0x3f837739	1.0270759
47	0x3fe06d7e	1.7533414
48	0x3facfe4f	1.3515109
49	0x3fc9ac0c	1.575563
50	0x401c7da9	2.4451697
51	0x3faf583e	1.3698804
52	0x3fc89562	1.5670588
53	0x40075274	2.1144075
54	0x40057e3e	2.0858302
55	0x3fddb210	1.7319965
56	0x4003d5e0	2.059929
57	0x3fe4992b	1.7859243
58	0x400bfef8	2.187437
59	0x400c15bb	2.1888263
60	0x3ffdda31	1.9832212
61	0x4003c723	2.0590293
62	0x3fc08107	1.5039376
63	0x3ffa9b12	1.9578574
64	0x400a7dea	2.1639352
65	0x3fd09661	1.6295892
66	0x400feba4	2.2487574
67	0x402f733e	2.7414088
68	0x400dcc31	2.2155879
69	0x3fe224aa	1.7667439
70	0x4029f283	2.6554267
71	0x3ff0a9c7	1.8801812
72	0x3fab7050	1.339365
73	0x401c03da	2.437735
74	0x3fe981b3	1.8242706
75	0x3fd31d4a	1.6493313
76	0x3fcd4774	1.6037431
77	0x3ff23005	1.8920904
78	0x3fed310b	1.8530592
79	0x3fc4b224	1.5366864
80	0x4000e009	2.013674
81	0x3fac1e9f	1.3446845
82	0x4000ee97	2.0145624
83	0x401d6d2c	2.4597883
84	0x4001fce3	2.03106
85	0x3fda1e44	1.7040486
86	0x3f911880	1.1335602
87	0x40241e65	2.5643551
88	0x4004678e	2.0688205
89	0x3fe55802	1.7917483
90	0x3fcef589	1.6168681
91	0x4006d124	2.106515
92	0x3fd810ec	1.6880164
93	0x3fc7e139	1.5615608
94	0x3fce3478	1.6109762
95	0x4006d3b4	2.1066713
96	0x3ff309fc	1.8987422
97	0x401db25e	2.4640117
98	0x3fb3e434	1.4054017
99	0x4025459d	2.5823739
